checkpoint_actor.pth (torch_old, 303117 bytes, 6 tensors)

fc1.weight f4 [256, 33]
000000 7a 60 61 bc fe d5 69 3e 6a 77 b1 3e 12 e0 92 be
       -0.013755912 0.22835538 0.34661418 -0.28686577
000010 23 9a 79 3f 1c 3b 39 3e f7 52 78 3f a7 8a 1d bf
       0.9750082 0.18088955 0.97001594 -0.6153969
000020 83 96 eb be 3f 07 11 3f d5 2e 3f be 6e 15 1f bf
       -0.4601327 0.5665168 -0.18670209 -0.62142074
000030 1b 67 a3 3e 7b 56 50 3d 3c 27 6b be a9 61 6a 3e
       0.319146 0.050863724 -0.22964185 0.22888817
000040 a5 00 85 3e 47 d4 2d 3f b7 12 45 3e 5c 83 6e be
       0.25977054 0.67902035 0.1924542 -0.23292297
000050 66 23 a7 be 9e 7f 60 3e 2c 92 e1 3e b2 d3 90 be
       -0.32644194 0.21923682 0.44056833 -0.2828651
000060 e1 9f 10 3d bb ae 81 3f c7 ea 06 be 0a 7b 9f 3f
       0.035308722 1.0131449 -0.13175498 1.2459424
000070 81 00 06 be d0 8f 88 3c 13 d5 80 bf b9 70 ca 3c
       -0.1308613 0.016670138 -1.0065025 0.024711953
000080 94 52 83 bf 0c d7 73 bf 24 2e 6c bf 9e e9 0f 3d
       -1.0259576 -0.9525001 -0.92257905 0.035134904
000090 ca 1f d7 3e 7a eb 77 be c7 9e c8 3d 0e 8f c1 3d
       0.4201644 -0.24210921 0.097959094 0.09451114
0000a0 84 7c df bb 3c df 44 be b7 62 c6 bd 96 e9 a2 be
       -0.0068202633 -0.19225782 -0.09686797 -0.31818837
0000b0 bf 40 c6 bd 2c 4c 8b 3d 4f e2 9d bd b6 21 30 bb
       -0.09680318 0.06801638 -0.077091806 -0.0026875562
0000c0 d4 55 ca 3e 94 e8 7e be 40 9c e4 3e 24 35 43 be
       0.39518607 -0.24893409 0.4465046 -0.1906324
0000d0 97 36 4d 3d 32 b6 7b 3e 74 83 f9 3d e0 0a be 3d
       0.05010089 0.24581221 0.12183276 0.09279418
0000e0 0c dd 3c be 5f a3 87 bc 72 08 06 be e0 3b ae 3e
       -0.18443698 -0.016557394 -0.13089159 0.34030056
0000f0 be f7 f0 3d 5f 27 00 bf 6e 9e 85 bd 03 6a 94 be
       0.11766003 -0.50060076 -0.06524359 -0.2898713
000100 08 1d da bd af 21 4c 40 71 4d 1e be 4c f2 17 3f
       -0.106500685 3.189556 -0.15459229 0.5935409
000110 b8 9a 20 bf c8 99 13 bf 8b db bb 3e 99 52 fa be
       -0.6273608 -0.57656527 0.36690935 -0.48891142
000120 6b d1 06 3e 11 94 91 be ff 69 16 bf 22 eb 97 3e
       0.13165824 -0.28433278 -0.5875549 0.2967158
000130 e2 8b 8d 3d b4 7e 9e 3e 2f 4a fd 3c bb c7 a5 3d
       0.06911446 0.30956042 0.030919163 0.08094736
000140 92 99 0d 3f 97 ec 40 3e cf 1e ca be 14 f8 0f 3f
       0.55312455 0.18840252 -0.3947663 0.5623791
000150 43 87 10 3e d3 f6 71 bf 63 24 b9 3e 70 e8 fc 3e
       0.14114098 -0.9451725 0.36160573 0.49396086
000160 7a 65 60 3d 7c 89 23 3e e1 d8 b6 3e d7 b6 f5 3d
       0.054784276 0.15970415 0.3571234 0.119977646
000170 17 c0 8e 3b 96 50 a8 3f 3e e9 38 3e 6d 1e 5d bd
       0.004356395 1.3149593 0.18057725 -0.053984094
000180 c8 1b 9e bf 24 2d 5e 3c 96 04 46 40 01 b1 26 3f
       -1.2352228 0.013560567 3.09403 0.65113837
000190 a9 b3 8f be da ee 3e bf 1f a9 78 bd fe 5c 66 3e
       -0.28066757 -0.7458321 -0.06070816 0.22496411
0001a0 1d 0a 10 bc f0 af 6b 3e 3a 81 10 be 2a 20 c3 be
       -0.008791474 0.23016334 -0.14111796 -0.38110477
0001b0 d5 72 ee 3e 29 bf 94 be 5f dc 2a 3d 98 15 f0 bc
       0.46571985 -0.29052094 0.04171407 -0.029307172
0001c0 0f 03 29 bf 99 b9 5e 3e aa e1 25 3f 64 dd 39 3f
       -0.6602029 0.21750487 0.6479746 0.7260344
0001d0 51 2e 9e bd 02 59 ae be d5 e1 bb 3d 2e 68 8b be
       -0.07723678 -0.34052283 0.091739334 -0.2722792
0001e0 47 03 d9 bc e4 90 28 3e f1 28 19 3d 9a 94 73 bd
       -0.02649082 0.16461521 0.03739256 -0.05946789
0001f0 06 c8 a5 3e 76 c4 14 3f d9 5a 01 bd 18 7e a9 be
       0.32379168 0.58112276 -0.03158078 -0.33104014
000200 94 96 2c 3b 55 bc 05 3e ab 42 13 bd 9e dd 22 40
       0.0026334869 0.13060124 -0.03595225 2.5447764
000210 45 98 84 3e 32 39 16 bd 28 fa 75 bf ef 6f 20 3e
       0.25897422 -0.03667564 -0.96084833 0.156677
000220 44 a2 a2 3e f5 8f 82 3e a3 ad b5 3e 5a 49 2e be
       0.31764424 0.25500455 0.35484037 -0.17020169
000230 d3 85 8b be c7 b6 d8 be d3 c4 fa 3d 94 79 da 3d
       -0.27250537 -0.42326948 0.122445725 0.106677204
000240 88 97 ef bd 4a 1b 09 bf 34 53 de 3e 54 12 43 3f
       -0.11698824 -0.53557265 0.43422854 0.7619984
000250 7a 35 2b 3e be 85 5e be a4 9b 16 3f 6e 73 12 3f
       0.16719618 -0.21730706 0.5883124 0.5720738
000260 a4 5d 1a 3e d0 f0 8c 3d 0e 7a a1 3e 18 4d c0 be
       0.15074784 0.06881869 0.31538433 -0.37558818
000270 d6 1a c6 3e 75 ed f4 bd 08 64 8a 3e 26 35 c7 bc
       0.3869235 -0.11959354 0.27029443 -0.024317335
000280 8c 4d a5 be 2c 39 82 be 47 b7 db 3d a4 05 37 3e
       -0.32285726 -0.25434244 0.10728317 0.17873245
000290 6e 01 9e bf d8 ee 7e be cf 40 de 3e d0 92 4c 3f
       -1.2344186 -0.24895799 0.4340882 0.7991152
0002a0 31 27 a1 bd 5b 1a 3b 3d 1f e1 44 bd 9a f2 06 3e
       -0.07868803 0.04567943 -0.048066255 0.13178483
0002b0 a3 a4 ae be ba 8b 75 bd 2f cd 1e 3e 07 80 2a bc
       -0.34109983 -0.059947707 0.15507959 -0.010406501
0002c0 36 e1 4c 3e 18 73 4e 3e b5 b5 aa be 55 05 3c 3f
       0.20007786 0.20161092 -0.33341756 0.73445636
0002d0 ff 11 6b bf 83 cd 5f 3e b9 2b ec be 28 34 5d be
       -0.91824335 0.2185574 -0.46127108 -0.21601927
0002e0 10 63 95 be 64 d9 25 3e 8e e6 2a 3d 69 24 03 bf
       -0.2917714 0.16196209 0.04172378 -0.5122743
0002f0 03 e2 90 3e a4 bd 62 bd 47 c6 92 3e b1 44 10 3e
       0.28297433 -0.055356637 0.286669 0.14088704
000300 f1 26 8d 3e a2 86 5b 3f 83 ac 43 be cd a3 72 be
       0.27568772 0.8575231 -0.19108777 -0.23695298
000310 17 d9 8c bd 27 03 38 40 81 cd 35 3f d6 e6 3e 3e
       -0.06877344 2.8751924 0.710167 0.18642744
000320 8f 0e 02 3f 06 6d 09 bf 7d af bb 3d f2 06 41 bf
       0.50803465 -0.5368198 0.09164331 -0.7540122
000330 9d 95 ba 3e 7e b6 90 3e 04 14 4b be e3 11 9a bd
       0.3644227 0.2826423 -0.19831854 -0.07522943
000340 ef fb 23 bc 53 a9 25 bd 9d fc 00 3e c9 a5 2b bf
       -0.010008796 -0.040444683 0.12596364 -0.67049843
000350 40 86 b6 be ef 27 15 be 09 5d 00 bf 1a 86 61 3e
       -0.356493 -0.14566015 -0.5014196 0.22023812
000360 f4 0f 15 be 20 b2 30 bf bb 6b c5 3d 58 3a b9 3d
       -0.14556867 -0.690218 0.096396886 0.09044331
000370 46 e0 5b 3e c9 de 01 bf af 60 00 bf 28 08 9f 3e
       0.21472272 -0.5073057 -0.5014753 0.3106091
000380 4c 67 00 3e 02 37 6c 3f 0a 4f 3e bd b3 41 d8 3d
       0.12539405 0.92271435 -0.046462096 0.10559406
000390 62 ac 4f bf 5d 83 d6 bd a1 14 d2 3f b7 61 44 3f
       -0.8112241 -0.10474274 1.6412545 0.767116
0003a0 9e df 37 bf 03 bf 38 3f ca 39 07 3d 3b e4 03 bd
       -0.7182559 0.7216646 0.033014096 -0.03220008
0003b0 ef 4b c0 be 03 c2 8e 3e b9 40 44 3e 9f be ec bb
       -0.37557933 0.27882394 0.19165315 -0.0072248722
0003c0 8e 3e 90 be fd 5f 94 bd a5 87 cc 3d ac c0 2c 3e
       -0.28172725 -0.07244871 0.0998681 0.16870373
0003d0 a7 f9 73 bf 26 94 86 3e bc d3 bd be 3e f6 00 bf
       -0.95302814 0.26284903 -0.37075603 -0.50375736
0003e0 6e 6c 08 bf 54 ae ff bd e1 07 38 be 96 d4 91 3e
       -0.5329045 -0.12484422 -0.17971756 0.28482503
0003f0 46 e1 83 3d c0 e4 a0 bd c0 86 75 be a8 ec 6d bd
       0.06439452 -0.078561306 -0.23977184 -0.05808702

fc1.bias f4 [256]
000000 ab bc 95 bf 66 84 2b be 8e cc 8c bf 93 40 39 3e
       -1.1698202 -0.16749725 -1.0999925 0.1809104
000010 fa 2e 5d bc 5c 97 cb be a4 93 84 bf e3 41 96 be
       -0.01349997 -0.39763916 -1.0357556 -0.29347143
000020 5b 88 8c bf bf b3 41 bf db 4a 1c bf ba c4 0e 3f
       -1.0979112 -0.75664896 -0.6105172 0.5576893
000030 c5 3d 81 be c9 16 74 be 9e 8a 68 bf 3e bb 01 be
       -0.2524244 -0.23836817 -0.90836513 -0.12669083
000040 fd 7f 21 bf 84 0f 91 be d6 27 8d bc 0f e2 0e 3e
       -0.6308592 -0.2833215 -0.01723091 0.13953422
000050 6e 9d 38 bf 7c f9 23 bf d4 6d 88 be 22 86 41 bf
       -0.7211522 -0.6405256 -0.26646292 -0.75595295
000060 be 85 19 bf fe f6 49 bf 0f 89 2d 3e f7 88 b8 3d
       -0.599697 -0.78892505 0.16946815 0.09010499
000070 45 d6 25 bf 71 b7 97 3e 61 df 2d bf e6 8c b6 bf
       -0.64780074 0.29632142 -0.67918974 -1.4261749
000080 91 53 5c bf a3 38 39 3d dc 8a 94 bf 94 5d 9a 3e
       -0.8606501 0.04522003 -1.1604877 0.3014952
000090 f0 59 a1 be ce 1f 4d bf f8 60 2c bf d8 22 10 bf
       -0.3151393 -0.80126655 -0.6733546 -0.5630317
0000a0 0c 2b 8d bb 50 66 be 3e f7 6f 91 be 67 52 45 bf
       -0.00430811 0.37187433 -0.28405735 -0.7707886
0000b0 02 db 4c bf ea ce 1f bf b7 ef ec be c4 d7 1d bf
       -0.8002168 -0.624251 -0.46276638 -0.6165736
0000c0 9c 76 1b be 40 ec bc be cb 62 76 bf 90 03 4f bf
       -0.15181965 -0.36898994 -0.96244496 -0.8086481
0000d0 ae 0b 46 bf ff d4 09 bf 31 a5 cf be e6 82 43 bf
       -0.7736157 -0.5384063 -0.4055572 -0.7637161
0000e0 90 b0 1e bf fc a3 aa bc a2 e7 53 bf 46 af 38 bf
       -0.61988163 -0.020830147 -0.8277532 -0.72142446
0000f0 4b 33 2d bf 51 23 0e bf 73 7d a5 3e 00 f7 f4 be
       -0.6765639 -0.5552264 0.32322273 -0.47844696
000100 6b a1 98 bf 22 8b 1f bf 2b de 00 bf 29 b2 93 be
       -1.1924261 -0.62321675 -0.50339 -0.28846863
000110 5d d4 c0 bd 7b 9e c8 3d 2e 3f 31 3f 9a 20 0c bf
       -0.09415505 0.09795853 0.6923703 -0.54737246
000120 9e 45 01 bf ed d7 c8 be 76 10 57 bf b7 00 34 bf
       -0.5049685 -0.39227238 -0.8400949 -0.7031359
000130 55 fa 47 3e 37 a8 f3 be 8e 05 12 bf 02 09 79 bf
       0.19529088 -0.47589275 -0.57039726 -0.9727937
000140 09 41 4c bf 21 ac 8f bf 02 19 29 bf 1f 35 48 bf
       -0.79786736 -1.1224405 -0.66053784 -0.78206056
000150 28 8e 32 be 24 d9 16 bf 4f 3f 32 bf 42 50 00 bf
       -0.17437041 -0.5892508 -0.6962785 -0.50122464
000160 9c 3f f3 3c ab 96 0a bf c7 09 9c bf b2 1f 83 bf
       0.029693417 -0.5413615 -1.2190484 -1.0244048
000170 2b 0e ed be 57 ff 3a bf 41 2a 68 bf 04 f5 20 3f
       -0.46299872 -0.7304587 -0.90689474 0.62873864
000180 da d8 8f 3c 9f 8e 07 bf 56 5e 84 bf 7c 5b b5 be
       0.017559458 -0.52952 -1.0341289 -0.3542136
000190 bb 98 ba be d0 ec 19 bf e0 43 08 bf f8 c5 16 bf
       -0.3644465 -0.6012697 -0.5322857 -0.58895826
0001a0 84 10 87 be c0 39 93 bf c3 23 9f bf 1a 6b b2 be
       -0.26379788 -1.1501999 -1.2432789 -0.34847337
0001b0 10 ee 3f bf ab 38 0c bf 19 7e 31 3e 1e fd 7b bf
       -0.7497263 -0.5477397 0.17333259 -0.984331
0001c0 c4 36 f7 bd 59 44 0b bd 55 8f b6 3e 6f f8 b7 be
       -0.120709926 -0.03400073 0.3565623 -0.35931727
0001d0 7b 5d 67 bf 3c 95 25 bf ff 61 69 be 9e 94 37 bf
       -0.90377015 -0.6468084 -0.22791289 -0.71711147
0001e0 8c a0 7f bf 6f dd 43 bf 88 ef 1f be ac 78 2b bf
       -0.9985435 -0.76509756 -0.15618718 -0.66981006
0001f0 42 dd 24 bf 06 79 59 bf 84 27 41 bf 6f c2 27 be
       -0.6440011 -0.8495029 -0.7545092 -0.16382764
000200 0b f3 45 bf 57 60 9d bf 71 d1 4e bf ca f1 08 bf
       -0.7732398 -1.2295026 -0.8078833 -0.5349394
000210 b0 f0 1a bf 1c b7 df 3d a0 c7 4a bf 54 a3 66 bf
       -0.6052351 0.10923597 -0.79210854 -0.9009297
000220 6a 17 0f bf 05 db 45 bf 7e bd 51 bf 33 4e 06 bf
       -0.558951 -0.7728732 -0.8192977 -0.5246307
000230 b8 67 ab be 17 77 0c be a6 1d f7 be 34 ce ce bd
       -0.3347757 -0.13717304 -0.48264807 -0.10097924
000240 25 b3 74 bf ee 22 57 bd 6a 15 83 bf 7b dd 89 bf
       -0.9558585 -0.052523546 -1.024091 -1.0770715
000250 0f a5 65 bf 93 02 e9 be 5f 88 6a bf 31 1e 4e bf
       -0.89704984 -0.45509776 -0.91614336 -0.8051482
000260 73 3d 44 bf 85 43 59 bf 47 b7 66 be 41 ca 6d bf
       -0.76656264 -0.8486865 -0.22530852 -0.9288674
000270 3d 9b 76 bf de 48 96 bf 42 eb 5e bf ae b5 66 be
       -0.96330625 -1.1740987 -0.87077725 -0.22530243
000280 df b9 19 bf 77 3d ac bd 4a fd 65 bf 53 06 e2 bd
       -0.6004924 -0.08410161 -0.89839613 -0.110363625
000290 d1 7b 94 bf 73 1e 54 bf 92 5b bf be 52 c4 2a bf
       -1.1600286 -0.8285896 -0.3737455 -0.6670581
0002a0 1e 5b ea be e9 97 25 bf c2 c1 f6 be a0 91 37 bf
       -0.45772642 -0.6468492 -0.481947 -0.7170658
0002b0 ca 52 94 bf dc 4e 90 be d8 16 ff be 4c ce 94 3f
       -1.1587765 -0.28185165 -0.49822116 1.1625457
0002c0 6e b8 61 be 3d 5c 48 bf 64 20 9a be 37 9a e1 be
       -0.2204301 -0.78265744 -0.30102837 -0.4406297
0002d0 48 66 28 bf d9 04 bc bf c3 f3 7d bf e8 ff 8a bf
       -0.6578107 -1.4688979 -0.99200076 -1.0859346
0002e0 22 92 43 bf d4 4c 87 bf 0b 56 8f bf 2c f7 7a bf
       -0.76394856 -1.0570321 -1.1198133 -0.98033404
0002f0 12 0b ba be 26 22 58 bf 32 21 4d bd 44 ab 20 bf
       -0.3633657 -0.84427106 -0.050080486 -0.6276133
000300 fc 23 52 be 39 0e c3 bd 9d a7 de be 3e 20 a3 be
       -0.2052154 -0.09524197 -0.43487254 -0.31860536
000310 2b 99 8f be e3 5d 1a be 85 0f 9b bd fb 97 78 bf
       -0.28046545 -0.15074877 -0.075713195 -0.97106904
000320 b6 a3 0b bf b1 1f de be 12 b8 68 bf 9e 32 1d bf
       -0.5454668 -0.43383554 -0.9090587 -0.6140536
000330 f0 25 b6 be 8c 9d 4b bf 8c 9d 93 bf d6 fd ad 3d
       -0.3557582 -0.7953727 -1.1532454 0.08495681
000340 0f c6 1d bf 00 45 32 be 6c 4a 45 bf e3 20 b2 bd
       -0.6163034 -0.17409134 -0.77066684 -0.08697679
000350 9d 1c e9 3e 43 61 c2 be 5d 8d 23 bf ed 1c 92 bf
       0.45529643 -0.3796483 -0.6388758 -1.1415077
000360 f6 ec 48 bf bd 13 57 bf 64 d6 cf be 94 1c 91 bf
       -0.78486574 -0.84014493 -0.40593255 -1.1336846
000370 10 f6 2d bf 73 dd 21 bf 92 e2 44 bf a8 03 3b bd
       -0.67953587 -0.6322853 -0.7690822 -0.045657784
000380 45 ac c7 3d 6a 4f 0f bf 80 be 52 bf 3d 57 40 bf
       0.09749655 -0.5598055 -0.8232193 -0.75133115
000390 80 d5 55 bf 35 1c 13 bf 69 5e 36 bf 61 a4 1c bf
       -0.835289 -0.57464916 -0.7123781 -0.6118832
0003a0 e7 09 8b bf 9d 25 1c bf 21 6c 07 bf 6d b0 d3 be
       -1.0862397 -0.60994893 -0.52899367 -0.4134554
0003b0 38 8c 0d bf 9c f3 ba be f2 47 10 bf 2a 20 3d be
       -0.5529208 -0.36513984 -0.5635978 -0.18469301
0003c0 32 90 17 bf c5 cb 36 3e 76 50 3c bf 93 00 aa 3e
       -0.592044 0.1785117 -0.73560274 0.33203563
0003d0 22 fc 66 3d 4e 39 27 bf 59 3c 28 bf ab 82 d3 be
       0.056392796 -0.65321815 -0.65717083 -0.4131063
0003e0 c7 37 2a bf d2 7e 88 bf 11 8d 9d be 2c 26 c1 be
       -0.6649136 -1.0663702 -0.30771688 -0.37724435
0003f0 16 15 a0 bf 66 81 3c be 7d a0 16 bf 15 79 b5 be
       -1.2506435 -0.18408737 -0.58838636 -0.3544394

fc2.weight f4 [256, 256]
000000 24 c8 df be e3 91 cc 3e b0 6c 30 3e 8a be 96 3e
       -0.43707383 0.39955053 0.17228961 0.29442245
000010 72 4d 96 3d 85 87 b0 be 63 14 99 bf d5 d8 b3 3d
       0.0733899 -0.34478393 -1.1959347 0.08781592
000020 53 fb c0 3e e8 64 27 3c 04 f6 0a 3e eb cc 65 3e
       0.37691745 0.010216929 0.1357041 0.22441451
000030 71 73 4f bd e7 0a c8 3e 80 f6 b2 bd 68 83 50 3e
       -0.050647203 0.39070818 -0.087384224 0.20362628
000040 ba a6 53 3f f7 1c b0 be 8c 0d e1 3e e7 72 74 bf
       0.8267628 -0.34397098 0.43955648 -0.9548783
000050 12 09 89 bd 62 8a 68 be 51 c6 48 3f 54 b7 0f 3e
       -0.06691183 -0.22709039 0.78427607 0.14034778
000060 ad b6 61 bd a9 2d a8 3e 3a 20 c3 3e f8 28 6d 3f
       -0.055105854 0.32847336 0.38110524 0.9264064
000070 f2 6b 0f bf 73 36 98 3e bb cc 37 be 4e 56 37 bf
       -0.56024086 0.2972904 -0.17949192 -0.71616066
000080 2d 0e 9b 3f 4f cb b4 3d 0c 36 a3 3d 5d 62 0f bf
       1.2113701 0.088278405 0.07969293 -0.56009465
000090 9f ff be 3d ed 23 e7 be c4 ab b1 3e a9 65 93 3e
       0.093260996 -0.45144597 0.3470136 0.28788498
0000a0 ef 88 2b bf b1 b3 13 bf 07 54 f8 3d 6a 00 6c 3e
       -0.6700582 -0.5769606 0.12125402 0.23047033
0000b0 07 46 c3 bd ac 24 75 be f9 99 56 3c ee ac c3 be
       -0.09534841 -0.2393977 0.013098233 -0.38217872
0000c0 5e 26 75 3f 3e f9 c5 be 43 d5 7d be 53 a5 1b 3c
       0.9576167 -0.3866672 -0.24788384 0.009499866
0000d0 f4 de 53 bd bf 60 ba be c8 48 52 bf ea b0 a8 3e
       -0.051726297 -0.36401936 -0.82142305 0.32947475
0000e0 b3 d3 b5 bf 13 9c f0 3c 59 d3 16 3f 3c 4c c4 3d
       -1.420523 0.029371297 0.5891624 0.09584853
0000f0 d4 27 bd 3e d5 21 a0 3f 22 81 90 3e 96 96 19 bf
       0.3694445 1.2510325 0.2822352 -0.599954
000100 fd 4a ff bd 81 ba c2 be b6 2c 16 3e c0 d5 90 be
       -0.12465475 -0.38032916 0.14665493 -0.28288078
000110 53 3b af be c0 7a 26 bf 67 24 16 bd d1 51 83 bf
       -0.34224948 -0.6503105 -0.03665581 -1.0259343
000120 97 8e ad bc 49 e2 5a 3e 66 c7 1b 3f 5b b2 d1 3e
       -0.021186156 0.21375383 0.6085113 0.40956387
000130 65 6e 23 3e 04 81 11 bf cf fd 65 bf 87 32 c4 3e
       0.15960081 -0.5683749 -0.89840406 0.383198
000140 40 b3 d4 bb 28 8e 9a 3e b6 31 6a bf 44 12 54 3c
       -0.006491095 0.30186582 -0.914821 0.012943808
000150 e4 05 f2 be 30 88 03 bf d0 ae 9d 3e 34 a4 ab bf
       -0.4727012 -0.5137968 0.30797434 -1.3409486
000160 74 8f 6d bf 21 cc 1b 3f b6 36 b8 bf fb 27 58 bf
       -0.9279702 0.6085835 -1.4391696 -0.84436005
000170 f3 7d 21 3e ce 6f de 3d ae 76 94 bf 11 8e 6c be
       0.15770702 0.10861169 -1.1598718 -0.23101069
000180 78 7f bb 3e 4b b5 da be 97 ba e4 bd 71 2a 9e 3d
       0.36620688 -0.4271644 -0.11168402 0.07722939
000190 2b 96 50 3f 43 23 fb 3e f3 c7 17 bf 13 f3 e6 3e
       0.8147914 0.4905034 -0.59289473 0.45107326
0001a0 b3 6c 8f bf 75 ad ab be f8 97 d6 be 5c bc eb be
       -1.1205047 -0.33530775 -0.41912818 -0.46042144
0001b0 ac 4c b3 3e fc 06 da 3e 6c 62 e7 be 58 15 a1 be
       0.35019433 0.42583454 -0.45192277 -0.31461596
0001c0 3f 36 d0 3e 8e b2 02 3d 6d 34 4f bf a2 8b 0f bf
       0.40666386 0.031908564 -0.8093937 -0.5607244
0001d0 b6 dc b4 bd 07 aa 60 be 7f da 2f bf b8 de 1e be
       -0.0883116 -0.2193986 -0.68692774 -0.15514648
0001e0 db 64 46 3e 53 74 de 3c e2 8b 1f be 8f a1 32 bc
       0.19374411 0.027155077 -0.15580705 -0.010902776
0001f0 58 d0 74 bf 52 88 c7 be 36 02 81 bf e5 33 f0 be
       -0.9563041 -0.38971192 -1.00788 -0.46914592
000200 80 72 21 bf cf 31 06 ba 93 42 6f 3e 7b e8 09 bd
       -0.6306534 -0.00051191164 0.2336524 -0.033668976
000210 41 bb e0 3d 9e ab fa 3e ee 9d 19 bf 24 25 2b bf
       0.10973216 0.4895906 -0.60006607 -0.6685355
000220 bf 73 7b 3f 5d 19 25 3e cd 34 db be 00 18 d3 bc
       0.9822349 0.16122957 -0.4281372 -0.02576828
000230 b2 92 84 bf f7 a7 72 be 81 a1 62 3e 2d 35 6c bd
       -1.0357268 -0.23696886 0.22131921 -0.0576679
000240 33 0e 18 3f 35 50 40 be 5f 3e b0 3c 74 9f 5f be
       0.59396666 -0.18780597 0.021514116 -0.2183817
000250 c3 02 c7 3e 48 41 d1 3e 4f 91 bc 3b 5e b6 13 3f
       0.38869295 0.40870118 0.005754627 0.57700145
000260 77 16 0a bf 58 dc a1 be f3 05 e7 3e fd e2 57 3f
       -0.5394053 -0.3161342 0.45121726 0.8433073
000270 1a 3a 3b bf 86 a7 b1 3e 67 4b e9 3c f5 48 9c 3d
       -0.7313553 0.34698123 0.028478337 0.07631103
000280 58 86 0d bf df c9 f5 be 1b 9d fa be 1f f5 52 3e
       -0.5528312 -0.48005578 -0.48947987 0.20601319
000290 e5 10 36 bf 6a 59 f4 3c 57 4f 4a bf 2d 12 8b 3e
       -0.7111953 0.029827792 -0.79027313 0.27162305
0002a0 5d de a5 3e 34 01 7e 3e 37 a5 b5 bf 49 84 0b 3e
       0.32396212 0.24805146 -1.4191045 0.13624682
0002b0 ec 25 6c 3e 7a 1c 9d be bd ee 05 3f 24 14 a7 be
       0.23061341 -0.30685788 0.5231741 -0.32632554
0002c0 e8 b4 fa be a4 e9 9a 3c 40 fd 80 3e 3b 3d f7 be
       -0.48966146 0.018910237 0.25193214 -0.48288903
0002d0 b3 90 7a be 46 6b 3e 3e 53 1e a8 3e 1d f7 44 bf
       -0.24469261 0.18595609 0.32835636 -0.76939565
0002e0 e9 35 83 bf a6 c2 e0 3e fe eb 29 bf 64 70 b4 3e
       -1.0250827 0.43898505 -0.6637572 0.35241997
0002f0 b9 31 65 be d1 b2 23 bf 00 31 90 3e 04 7c 84 3e
       -0.22382249 -0.6394473 0.28162384 0.25875866
000300 c4 39 4e 3f ff 9c 75 bd 17 26 d6 be 4a 22 7c be
       0.80556893 -0.059964176 -0.41825935 -0.24622455
000310 8c cc 89 bf 08 85 05 3f ce 32 c0 be d9 c5 46 3e
       -1.0765548 0.52156115 -0.3753876 0.1941141
000320 28 7b 6a 3e 76 e5 c0 bc 48 1b 19 3f 21 36 f3 3e
       0.22898543 -0.023546916 0.5980725 0.47502235
000330 0f dc 71 3f fa 1c 64 3e a6 cd ce be 8b 7c 8f 3e
       0.9447641 0.22276679 -0.40391272 0.28024706
000340 9e a4 d3 be d2 b0 b1 bf 15 1a 0f bf 87 ba 39 be
       -0.4133653 -1.3882086 -0.55899173 -0.18137561
000350 86 3d 5b be 09 21 38 be ec be b9 bd fb c2 07 3f
       -0.21410188 -0.17981352 -0.090696186 0.5303189
000360 36 48 3f be dd a2 89 3e 3b 92 26 bf 81 27 e1 be
       -0.1867989 0.26882067 -0.6506688 -0.43975452
000370 1d 6c 8e bd 33 f3 c7 be a0 07 cd bf b7 8b 23 3f
       -0.06954215 -0.39052734 -1.6017952 0.6388506
000380 98 05 00 3f 6a 70 1b 3e c1 cb 9e 3d ff d5 22 bf
       0.50008535 0.15179601 0.07753707 -0.6360778
000390 9b 42 a1 bd 52 4f 6f bf 11 c3 3c 3e 89 e2 01 3e
       -0.07874032 -0.9348041 0.18433787 0.12684073
0003a0 84 7b 99 3f 18 6f f6 be 5e c8 1a bf e2 91 4c 3e
       1.1990819 -0.48131633 -0.60461986 0.19977525
0003b0 93 d9 6a 3e a1 72 e8 3d 44 01 8a bd a7 dd b7 be
       0.2293456 0.11349989 -0.06738523 -0.35911295
0003c0 be 4a 31 bf 74 5e d8 be 88 91 63 be 2e 7d d7 3e
       -0.6925467 -0.42259562 -0.22223485 0.42087692
0003d0 4d 07 01 bf 9e a0 e2 3e 26 77 8d be 7a 5a d4 bd
       -0.50401765 0.44263166 -0.27629966 -0.103688195
0003e0 65 b5 9b be c2 c1 1b 3e a8 26 02 3f ad 25 aa be
       -0.3041183 0.15210631 0.50840235 -0.3323187
0003f0 e9 72 57 3f 59 0a ec 3e 83 11 15 3f 2e 85 99 bc
       0.84159714 0.46101645 0.58229846 -0.018740263

fc2.bias f4 [256]
000000 f6 6f 03 bf 29 8e 90 3d e7 37 9f be eb 7e 24 be
       -0.51342714 0.07058365 -0.31097338 -0.1606404
000010 43 8f 04 bf 77 67 5a bf c0 b5 71 bc d2 ed 90 be
       -0.517811 -0.85314125 -0.014752805 -0.28306442
000020 96 23 df 3e 01 b1 57 bf fa 74 30 bf 7c 1f 08 bf
       0.43581837 -0.8425446 -0.6892849 -0.5317304
000030 e5 63 33 bd 6f be a7 bd b5 5e bc 3d 6c 8f e7 be
       -0.04379644 -0.08190619 0.091977514 -0.4522661
000040 fc 81 f2 be 42 a7 cb be 1f 6b 16 be 39 ab 59 be
       -0.47364795 -0.39776045 -0.14689301 -0.21256723
000050 86 0d 05 bf 67 4b b7 3e 71 85 2c be ab d4 c9 3d
       -0.5197376 0.35799715 -0.16847779 0.09855016
000060 f9 d4 e1 bc 61 fd c0 be ea cf 37 be 46 2a 32 be
       -0.027567374 -0.37693313 -0.17950407 -0.17398939
000070 b7 0c 74 3d 32 ba a3 3c 45 67 da be e7 23 dd 3d
       0.05958244 0.019986246 -0.42656913 0.107978635
000080 84 38 a0 be f9 d2 87 bd 73 d7 8b be 16 e7 12 bf
       -0.31293118 -0.06632037 -0.27312812 -0.5738386
000090 bb bd 11 bf 80 e0 c9 be 9e c4 a7 be f6 7e 7c be
       -0.5693013 -0.39429092 -0.32767195 -0.24657807
0000a0 ae ff ea bd 9a a2 f2 be 78 18 d4 be 77 ed 7b bd
       -0.11474548 -0.4738968 -0.41424918 -0.06150576
0000b0 06 24 b4 be 5b 93 1a bd c9 ab 52 3e fb 94 25 be
       -0.35183734 -0.037738185 0.20573343 -0.16170113
0000c0 1d cd 40 bf 3a 70 df bc 52 cc 4f be 03 1a 83 bf
       -0.7531298 -0.027275193 -0.20292786 -1.0242313
0000d0 ec 10 27 be db 67 22 bf f4 b3 bb be 21 9e ae be
       -0.16315049 -0.6343972 -0.3666073 -0.34105018
0000e0 c5 2f a3 be 59 b5 4a bf 22 02 a6 be 22 33 d4 be
       -0.31872383 -0.79182965 -0.32423502 -0.4144526
0000f0 09 0a 84 be 0e 19 5e be f4 d2 64 be d9 2c 5d be
       -0.25788906 -0.21689245 -0.22346097 -0.2159914
000100 c7 dd e6 be e4 91 b3 be 40 79 26 be fa 7a 2c 3d
       -0.45091078 -0.35072243 -0.1625719 0.042109467
000110 bb 11 11 bd 7b 40 8d be 24 05 e1 bd 94 da a7 be
       -0.0354173 -0.27588257 -0.109873086 -0.3278395
000120 14 9a c0 be e7 e5 20 bf 46 1a e7 be 32 42 ee bd
       -0.37617552 -0.62850803 -0.45137233 -0.116337195
000130 36 e6 c8 3d 8b ec 22 3e a9 38 0a bf 6a 8d 86 3d
       0.09809534 0.15910546 -0.53992707 0.06569941
000140 da 01 70 bf 63 49 23 bf af fc dd 3d 9b 84 e3 be
       -0.93752825 -0.63783854 0.10839211 -0.44437107
000150 48 38 9b 3e bd 42 c1 bd 8c ae 18 3e f4 d5 48 bc
       0.30316377 -0.094365574 0.14910334 -0.012258042
000160 84 35 eb be 19 db ed be 41 ea 4c 3c 1d b3 23 bf
       -0.45939267 -0.4645622 0.012507022 -0.6394518
000170 32 23 fc bb 97 a4 86 be fc 38 e7 be b3 0e d1 bd
       -0.0076946253 -0.26297447 -0.45160663 -0.10207882
000180 98 75 20 bf cf aa 6b be e7 cc 90 3d 78 66 cc 3e
       -0.62679434 -0.23014377 0.07070332 0.39921927
000190 15 13 07 bf 5e 6a b3 be 23 16 a8 ba 85 96 57 bf
       -0.5276349 -0.3504209 -0.001282398 -0.8421405
0001a0 90 aa 9d be d0 4d 34 be e4 d2 86 3d 30 f5 e3 be
       -0.3079419 -0.17607808 0.06583193 -0.44523
0001b0 3e 94 5b bf 9e 79 a5 3e 7c 2f 82 bd 0c e8 b0 be
       -0.85773075 0.3231935 -0.06356713 -0.34552038
0001c0 58 e2 65 bd 56 e2 a5 3d 32 b4 00 bf 78 f3 a2 bf
       -0.05612406 0.08099811 -0.50274956 -1.2730551
0001d0 b7 61 2c bf 0a cf 32 bf 95 8a 20 bf d2 f3 a0 be
       -0.673366 -0.69847167 -0.6271146 -0.3143602
0001e0 8f 8c 81 bc 10 67 87 bc 1a aa bb 3e 5f 4d 7b bf
       -0.015814094 -0.016528636 0.36653215 -0.98164934
0001f0 f0 21 38 bf e2 6f b6 be 37 65 d0 3d 6e 77 a4 be
       -0.71926785 -0.35632235 0.10175555 -0.32122368
000200 15 6a a2 3e 3d 01 c9 be 5f 37 b9 be a0 ec 5b bb
       0.3172156 -0.39258757 -0.36175057 -0.0033557788
000210 30 89 d2 be ac ee b4 be 8c a1 33 bf cc 51 be be
       -0.4112029 -0.35338342 -0.70168376 -0.3717178
000220 41 9f 4f be 7f c4 ca 3e 2d e6 d3 be 11 24 50 be
       -0.20275594 0.3960304 -0.41386548 -0.20326258
000230 71 08 4b bf 2d 5d de 3d ee e4 46 be f6 55 e2 3c
       -0.79309756 0.108576156 -0.19423267 0.02762888
000240 5d 45 af be d6 17 2b bf c3 d3 99 be de b2 35 3d
       -0.34232607 -0.66833246 -0.30044374 0.044360034
000250 73 c1 95 be 85 1c 06 be 4a 33 82 bd 14 52 23 bf
       -0.29249153 -0.13096817 -0.06357439 -0.63797116
000260 15 b6 d3 be b9 c6 42 bf 9a 78 59 bf 65 01 a3 be
       -0.41349855 -0.76084477 -0.8494965 -0.31837
000270 98 f7 07 be f1 cb c1 3d 38 06 39 bf 4d af 1e be
       -0.13278043 0.09462727 -0.72275114 -0.1549656
000280 b7 17 f2 bd dc b3 3d bf 95 42 e8 bd 64 45 c0 bd
       -0.118209295 -0.7410257 -0.113408245 -0.09388235
000290 fb 51 61 be ed f2 1c bf 13 e2 d5 bd 47 9f 1c bf
       -0.2200393 -0.61308175 -0.10443511 -0.6118054
0002a0 4d e7 b4 be b7 56 98 be ef 48 13 bf ac 3a ca bd
       -0.35332718 -0.29753658 -0.5753316 -0.09874472
0002b0 16 a9 a2 be 24 b6 3a bf ad 66 8b be b7 ee 1a bf
       -0.31769627 -0.72934175 -0.27226773 -0.605205
0002c0 0d 85 63 be 3f 38 77 be 7a 90 3d bf 3f da 3f bf
       -0.22218724 -0.2414255 -0.7404858 -0.7494239
0002d0 4f 98 e8 be 20 9d ce be 19 a5 e0 bd 9d 0b d3 be
       -0.45428702 -0.40354252 -0.1096899 -0.41219798
0002e0 1b de 1c bf 8a 78 e0 be 1d 13 7b be 4b 16 80 bf
       -0.61276406 -0.43841964 -0.2451901 -1.0006803
0002f0 45 30 1e bf 81 d3 16 bf 34 7e 25 bf 50 9b 13 bf
       -0.61792403 -0.5891648 -0.64645696 -0.57658863
000300 24 c5 be be 3b c7 5a be dc 98 c6 be d0 3b 0f bf
       -0.3725978 -0.21365063 -0.38788497 -0.5595064
000310 8a f1 69 bf 7d 16 11 3f 14 ff 1b bf 85 d1 ee be
       -0.91384184 0.5667494 -0.60936093 -0.46644226
000320 f3 b6 64 be 40 81 6e be d7 a2 c6 3e 9b f4 60 be
       -0.22335415 -0.23291492 0.38796112 -0.2196831
000330 f2 71 d7 be f0 7a c7 3e 1f 8a 13 be 74 3d 21 bf
       -0.4207912 0.3896098 -0.14408158 -0.62984395
000340 b3 1c 04 bf 3d c4 99 bd e7 0b 85 be 03 17 78 3e
       -0.5160629 -0.075081326 -0.25985643 0.24227528
000350 6c 91 69 be f7 03 78 be a4 94 16 bf d3 f1 5d bf
       -0.2280938 -0.24220262 -0.5882056 -0.8669712
000360 c5 77 39 bf b3 d7 17 3e fc 77 73 be ee f6 28 bf
       -0.7244838 0.14828376 -0.23776239 -0.66001785
000370 e5 8b 50 bf e1 c3 ac be 43 ce 46 be 43 f6 2d 3e
       -0.8146346 -0.33743194 -0.1941462 0.16988473
000380 5c e5 2e bf 78 d9 cd be f0 3a 9e be 12 59 a7 bd
       -0.68318725 -0.40204978 -0.3090434 -0.08171286
000390 9f 1b c3 be 3b ed b2 3d ac 41 dc be b6 7e e1 be
       -0.3810701 0.08736654 -0.43018854 -0.44041985
0003a0 50 4c 13 3f eb bb 5f be 5f a8 2a bf 47 6d 7d be
       0.5753832 -0.21849029 -0.66663164 -0.24748717
0003b0 c1 92 9d bd 33 49 70 bf cd 6e 86 3e 1c 12 bf be
       -0.07694007 -0.93861693 0.2625641 -0.37318504
0003c0 ba de 78 bf 10 11 53 bf 0e 34 19 be 02 03 85 bf
       -0.97214854 -0.8244791 -0.14961264 -1.0391543
0003d0 d9 66 f4 be a1 99 27 bf 3b 74 ef 3c af 98 81 be
       -0.47734717 -0.65468794 0.029230228 -0.253118
0003e0 20 b0 a7 be c6 b9 09 3e 16 99 f8 be cd ec a0 3d
       -0.3275156 0.13449773 -0.48554295 0.07857666
0003f0 70 bf 56 be a1 4e 4f bc 65 3b 8a 3e 53 06 d8 bd
       -0.20971465 -0.012653024 0.2699844 -0.10548081

fc3.weight f4 [4, 256]
000000 f7 1d 1c be eb bf 75 be 34 68 d0 3e 7c e1 99 3d
       -0.15245806 -0.23998992 0.407045 0.07513711
000010 3e 88 b5 bf 76 0a d5 3f 17 90 2e bf 50 0b 77 3f
       -1.4182203 1.6643817 -0.68188614 0.96501637
000020 e2 d1 9d 3f 8b ca 38 3f 26 5d 62 be 5e 07 e7 3e
       1.2329676 0.72184056 -0.22105846 0.45122808
000030 93 a2 b0 bd 1e 87 8a bf de 37 c7 be 9e e4 6f 3f
       -0.086247586 -1.0822484 -0.3890981 0.9370822
000040 f3 45 b3 be e9 3d 32 bf 32 d1 ac bd e6 56 72 be
       -0.35014305 -0.6962572 -0.08438338 -0.23665962
000050 c1 3a 89 3f 67 b4 b1 3c 1a 2f a3 bd e4 c3 c2 bc
       1.0721055 0.021692468 -0.07967968 -0.023775049
000060 77 d8 3d 3e e3 44 8c 3f b5 e2 05 3e d3 0a 11 3e
       0.18539606 1.0958523 0.13074763 0.14164285
000070 b0 47 eb 3c ca b3 48 3f c1 16 45 3d 31 0d 9b be
       0.028720707 0.78399336 0.048117403 -0.30283502
000080 d1 7b e8 3d b0 57 21 3d dd ea ef 39 48 a3 a6 bf
       0.11351741 0.039390266 0.0004576062 -1.301858
000090 40 0c 97 bf 14 6a 71 bd 1a 47 04 3c 4d 5a ae bd
       -1.1800613 -0.058939055 0.008073593 -0.08513317
0000a0 ac 73 c8 3d 37 2b 18 bf bf 80 3b be 9e 10 49 3f
       0.09787688 -0.5944094 -0.18310831 0.7854098
0000b0 88 15 10 bf 44 c4 b2 3e 83 c0 13 3f 1d 91 3d 3f
       -0.56282854 0.34915364 0.57715625 0.7404955
0000c0 46 a4 3d 3f ba 34 6a 3a 74 07 c8 3e d8 6b a3 3e
       0.74078786 0.00089342485 0.39068186 0.31918216
0000d0 e3 03 e7 bd 0b 33 89 be 27 a9 62 be 68 e1 15 3f
       -0.11280038 -0.26796755 -0.22134839 0.5854707
0000e0 e1 3b ad 3e 5f af b9 3f c3 47 b7 3e cc 98 eb bc
       0.33834746 1.4506644 0.35796937 -0.028759383
0000f0 67 94 3c be ee f6 8a 3f 91 be c6 be 34 99 99 3e
       -0.18415986 1.0856607 -0.38817266 0.29999697
000100 96 1c c6 be 45 62 7e 3f a5 83 c7 bf 1f 5d f5 bd
       -0.38693684 0.993687 -1.558705 -0.11980652
000110 ed 73 1a bd 62 27 7c bf 60 85 64 bf b2 5f 52 3f
       -0.03770821 -0.98497593 -0.89266014 0.8217727
000120 7e 73 02 3d a9 cc ba be 5d 5a ba 3f 46 c0 11 be
       0.031848423 -0.36484268 1.4558827 -0.14233503
000130 cd a7 62 bf be 65 61 bd aa d3 51 3f 97 98 21 3f
       -0.88537294 -0.05502867 0.819636 0.6312346
000140 af 76 b2 bf 8f 11 e2 bf c9 ba 61 3f 06 ee a1 3c
       -1.3942469 -1.7661608 0.88175637 0.019766819
000150 ba 37 83 bd 0b 98 59 bf 39 e6 07 bf 6b 5c f2 3d
       -0.064071134 -0.84997624 -0.53085667 0.118340336
000160 81 3d d5 3e 43 fd c9 3e 74 9f 3e bf a1 0c 39 3c
       0.41648486 0.39451036 -0.74462056 0.011294515
000170 11 a2 f4 be 04 eb 53 3f a1 c2 0c bf 33 b2 2c 3f
       -0.47779897 0.8278048 -0.5498448 0.6745941
000180 58 53 84 bf db df 91 be 33 0e 3b bc bb 89 f7 3e
       -1.0337934 -0.284911 -0.01141696 0.48347268
000190 16 a4 12 bf d3 e8 e7 bf f3 0d 1c be 74 12 be 3e
       -0.57281625 -1.8117927 -0.15239696 0.37123454
0001a0 a6 29 8a 3e 7a 72 63 bf bd 5d 60 bf 66 ec 67 3e
       0.269849 -0.8884655 -0.87643033 0.22648773
0001b0 4d c4 80 3e d7 f2 1e 3f de a1 e5 be 5d 4f 5b bf
       0.25149766 0.62089294 -0.44850057 -0.85667974
0001c0 65 1d 0e bc 6f 55 03 bf da 45 4e bf 6d 9c f8 3d
       -0.008674 -0.51302236 -0.80575335 0.12139211
0001d0 ca 9c aa be b8 12 b3 3e aa 23 f8 3c 10 e7 ca 3f
       -0.33322746 0.3497522 0.030290443 1.5851765
0001e0 1c de d8 be 2d 4c ac be c1 0a 6a be 3c 5b 85 3e
       -0.42356956 -0.33651868 -0.22855665 0.2604617
0001f0 13 72 29 3f e8 11 92 3f f2 f4 fc be 90 13 b3 bc
       0.6618969 1.1411715 -0.49405628 -0.021859914
000200 0f e6 61 3f 8a b7 89 bd fd 64 b8 3c 75 1d 56 3f
       0.88241667 -0.067244604 0.022509092 0.836387
000210 d4 0f 79 3d 3e da 3b 3e 03 12 a7 be 21 72 9c be
       0.06080611 0.18344972 -0.3263093 -0.30555823
000220 7c 0a ff 3e 4b 26 35 3f 91 c7 02 3f 1a 28 2b 3f
       0.49812686 0.70761555 0.51085764 0.66858065
000230 e0 55 56 3c c6 d1 30 3d de 03 f9 3e 10 77 a5 3e
       0.013081998 0.043168806 0.48635763 0.323174
000240 18 1d 3c 3f 2b 72 2f 3e c3 e6 97 be a7 99 0e bf
       0.73481894 0.17133395 -0.29668245 -0.55703205
000250 65 9b c4 bd 27 b6 86 3d 55 fd 03 be fa 6f 31 bf
       -0.09599952 0.065777116 -0.12889607 -0.6931149
000260 07 b6 b2 bd cb fd f1 bc 2e 52 74 bc 46 2c 9b 3e
       -0.08726125 -0.029539963 -0.014912171 0.30307215
000270 c1 9a f5 be 57 81 85 3d 0f c8 63 3f f2 9b 89 3c
       -0.4796963 0.0651881 0.8897714 0.016797993
000280 64 19 ae 3f 1e ae ce 3f 5a 9e a3 bf d1 34 24 3e
       1.3601499 1.6146886 -1.27827 0.16035773
000290 69 5a cd bf 7b c2 37 be 1e 11 13 bf cb 85 44 be
       -1.6043216 -0.17945282 -0.57447994 -0.19191663
0002a0 c0 4c b0 bf c2 07 d7 bf e2 5d fa 3d 92 3a d4 3c
       -1.3773422 -1.6799242 0.12224938 0.025906835
0002b0 b9 f3 2b 3f e9 cd 7f 3f 61 32 18 3d 7c 4d bb 3d
       0.67168766 0.9992357 0.03715742 0.09145638
0002c0 46 a1 d5 3c ed c8 55 bf 93 7f 41 bf fb d6 a0 bf
       0.026077878 -0.83509713 -0.7558529 -1.2565607
0002d0 82 64 ae 3f a5 83 d5 be d5 bb 82 bf d8 b5 6b bf
       1.3624423 -0.41702 -1.0213572 -0.92074347
0002e0 33 9b 0e bf 8c ef 7f be 4e 3c 78 be ac 4f 61 3f
       -0.55705565 -0.24993724 -0.24241754 0.88012195
0002f0 d9 58 d1 be 04 e9 3d bf 5c 5c ec be 00 6c 19 3f
       -0.40888098 -0.7418368 -0.46164215 0.5993042
000300 04 8e a1 3e ea 9f d9 be 08 b2 14 3f db 6a af bf
       0.31553662 -0.42504817 0.58084154 -1.3704485
000310 03 2a 0e bf 20 c8 1d 3f b0 c4 03 be 23 82 5b 3e
       -0.55532855 0.6163349 -0.12867999 0.21436362
000320 9b 8a 04 3e d3 dd b9 bf 25 95 99 bf 16 5d 2e be
       0.12943499 -1.452082 -1.199864 -0.17027697
000330 62 a2 a4 be 15 01 7c bf 7f 59 70 3f 10 fd 99 bf
       -0.32155138 -0.9843915 0.9388656 -1.2030354
000340 b4 7c cc ba 72 ba bb be 12 47 cd be 83 a0 28 bd
       -0.0015601129 -0.36665684 -0.40093285 -0.0411687
000350 ba b3 1f 3d 92 62 b3 bd 0d 46 d8 3f c0 9c 63 3e
       0.03898976 -0.08759035 1.6896378 0.22227764
000360 47 e4 83 3e f5 8c 6e 3f 08 a2 7c 3e 6e f8 63 3f
       0.257601 0.93183833 0.24671185 0.8905095
000370 c2 a1 2d 3e f1 f6 ec 3d 2d 4f 7f b9 cc 9b 43 be
       0.16956237 0.11570538 -0.0002434819 -0.191024
000380 e0 00 3f 3f ff 12 93 3f 19 59 3c 3e a8 e2 48 3e
       0.7461071 1.1490172 0.18393363 0.19617712
000390 af 29 9d 3e 0b 41 ac be 2d 1a 4f bf ad cc fa bc
       0.30695865 -0.33643374 -0.80899316 -0.030615175
0003a0 df 2c 39 3f 4a 89 c3 be 1c 14 26 be dc ca 45 bf
       0.7233409 -0.3819068 -0.16218609 -0.77262664
0003b0 f0 65 b1 3d 0f 10 33 3d 9d 96 d6 3e 31 94 99 3e
       0.08662021 0.043716487 0.41911784 0.29995874
0003c0 c8 77 36 3e f9 9a 3c 3d ac 2e 03 3f af 8c 0a bf
       0.1781913 0.04604623 0.5124309 -0.54120916
0003d0 20 cd 0e bf d3 9e 4f 3f 37 a6 b5 be cc 77 e0 be
       -0.55781746 0.8110172 -0.35478374 -0.43841398
0003e0 63 cb f4 3e 62 50 23 3d 08 25 45 be 37 f7 94 bf
       0.47811422 0.03987158 -0.19252408 -1.1637944
0003f0 1d b5 9d 3f 67 2b 80 bf 63 94 7b bf bb e9 e9 3f
       1.2320896 -1.0013245 -0.98273295 1.8274454

fc3.bias f4 [4]
000000 f8 0f 7f 3f 74 7c 91 3f fa 5e 29 be ac b2 5a bd
       0.9963374 1.1366105 -0.16540137 -0.05339305
