checkpoint_critic.pth (torch_old, 87028 bytes, 5 tensors)

fc1.weight f4 [128, 33]
0	0x3cb3f411	0.021966966
1	0xbdd48778	-0.10377401
2	0xbd8109fd	-0.06300733
3	0x3dc7655e	0.09736131
4	0x3d667582	0.056264408
5	0xbf0935cc	-0.5359771
6	0xba85803f	-0.0010185315
7	0x3c76d1f8	0.015064709
8	0x3c972fec	0.018455468
9	0xbdbbb036	-0.09164469
10	0x3d34d8cc	0.044152066
11	0xbc67e277	-0.0141531145
12	0xbb30fb3d	-0.0027005218
13	0xbd1f95c9	-0.038961206
14	0xbcafd5b0	-0.021464199
15	0x3bedcb91	0.007256933
16	0xbe56751c	-0.20943111
17	0x3e45f472	0.1933153
18	0xbd131a5c	-0.03591381
19	0x3bc27705	0.0059345984
20	0xbc490e26	-0.01227144
21	0x3c3f8a01	0.011690618
22	0xbd1bb20a	-0.03801159
23	0x3c96c4ef	0.018404452
24	0xbc63cb94	-0.013903517
25	0xbb0df582	-0.0021661227
26	0x3e35c079	0.17749204
27	0x3ea13ad5	0.31490198
28	0xbd6b9e75	-0.057524163
29	0xbafad728	-0.0019137608
30	0xbec0ae11	-0.37632802
31	0xbbb8f343	-0.0056442334
32	0xc037a441	-2.8694003
33	0xbd81ae0f	-0.06332027
34	0xbe7d602b	-0.24743716
35	0xbe39fb70	-0.18162322
36	0x3de649ef	0.112445705
37	0xbec93e38	-0.39305282
38	0x3e400f9b	0.18755953
39	0x3e9f6a49	0.31135777
40	0x3cdc60f9	0.026901709
41	0x3d90e812	0.07075514
42	0x3e28cfb1	0.16485478
43	0x3ce33c3a	0.02773868
44	0xbd89d1bf	-0.06729459
45	0x3cf58185	0.029968986
46	0x3d752e4e	0.059858613
47	0x3d214fa7	0.039382603
48	0x3e1a28d7	0.15054642
49	0xbe7234c6	-0.23652944
50	0x3e587e5f	0.21141957
51	0xbdc66f5d	-0.096892096
52	0xbd26c009	-0.040710483
53	0x3d86452e	0.06556164
54	0x3dbabbb4	0.09117833
55	0xbe4b1519	-0.19832267
56	0x3e11a617	0.14223514
57	0xbca62df6	-0.020285588
58	0xbd3d41f5	-0.04620548
59	0x3d575d7d	0.05257939
60	0x3e67f757	0.22652946
61	0xbd4a4a1e	-0.04938709
62	0x3d985708	0.07438475
63	0xbe46f31f	-0.19428681
64	0x3d6b6940	0.05747342
65	0x3e9dbe9a	0.3080948
66	0xbb8b5813	-0.0042524426
67	0xbd5cdcb5	-0.05392142
68	0x3dc53dab	0.09630903
69	0xbbb960a4	-0.0056572724
70	0x3dc5711e	0.09640716
71	0xbe998e96	-0.29991597
72	0x3d9ed462	0.077553526
73	0xbbdb7abd	-0.006697981
74	0xbc863f5b	-0.016387632
75	0x3d0ccb23	0.034373414
76	0xbca3fffd	-0.020019526
77	0xba27c601	-0.00064000493
78	0x3bef809b	0.007309032
79	0x3c6c86a1	0.014436395
80	0x3bebddd2	0.007198074
81	0xbcccfbea	-0.025022466
82	0x3da60c90	0.08107865
83	0x3d0e3e93	0.034727644
84	0xbd1e6249	-0.03866795
85	0x3c992117	0.018692536
86	0x3bc9fec5	0.006164404
87	0x3c13be0c	0.009017479
88	0x3c73822c	0.014862578
89	0x3c5e599a	0.013571167
90	0x3bcb99a6	0.0062133847
91	0xbbee84f7	-0.0072790342
92	0x3e131120	0.14362001
93	0x3ddc4b2e	0.10756527
94	0xbd0bf774	-0.034171537
95	0xbd79155d	-0.06081139
96	0xbe5e18ac	-0.21689099
97	0xbd16db9a	-0.036830522
98	0xc02efd15	-2.734197
99	0x3cb63543	0.022242194
100	0x3a25767f	0.0006311908
101	0x3c2ebee9	0.010665634
102	0x3d1ae124	0.037812367
103	0xbdbf54a4	-0.09342316
104	0xbee9fbe5	-0.45699993
105	0xbca196ca	-0.019725222
106	0xbc46eefc	-0.012141939
107	0x3c605b95	0.01369371
108	0x3a350fbc	0.00069069467
109	0x3b8d3393	0.0043091266
110	0x3b49a43d	0.003076806
111	0xba2fb17a	-0.0006702166
112	0xba3a9e20	-0.00071188994
113	0x3b8e2a31	0.0043385257
114	0xbbfdda48	-0.0077469684
115	0xbc74a226	-0.014931237
116	0x3d0c5d63	0.034268748
117	0xbd876f0c	-0.066129774
118	0xbce3e7fe	-0.027820583
119	0xbad9012f	-0.0016556139
120	0x3b6529fe	0.0034967656
121	0xbc4f01f8	-0.012634747
122	0x3b61e2c1	0.0034467431
123	0xbb20ac2f	-0.0024516692
124	0x3986b9af	0.00025696817
125	0x3ccd9b31	0.025098415
126	0x3e399265	0.18122251
127	0xbdbeb0e9	-0.09311087
128	0xbe466e19	-0.19377936
129	0xbe44b695	-0.19210275
130	0xbe3560d4	-0.17712718
131	0x4025a694	2.5882921
132	0x3b19091e	0.0023351382
133	0xbd52fde1	-0.05151165
134	0x3ef2719d	0.47352305
135	0x3ecc8299	0.39943388
136	0xbec373d5	-0.3817431
137	0xbde54d50	-0.11196387
138	0xbd00b9dd	-0.031427253
139	0xbcb960bf	-0.02262914
140	0x3e7b2ab3	0.24528007
141	0xbbda2595	-0.006657312
142	0x3b0a8524	0.0021136487
143	0x3d3077cd	0.043083
144	0x3e17b986	0.14816865
145	0xbe258bbb	-0.16166584
146	0x3ee63984	0.44965756
147	0xbccda890	-0.02510479
148	0x3e93fbb3	0.2890297
149	0xbdd151b4	-0.10220662
150	0x3e0d1054	0.1377576
151	0x3dd88127	0.10571509
152	0x3d1f3efc	0.038878426
153	0x3df8aafa	0.12141986
154	0xbd84b59c	-0.06479952
155	0x3d4184a5	0.04724564
156	0x3dbeb861	0.09312511
157	0x3d7dd317	0.06196889
158	0x3eb5b1e3	0.3548728
159	0x3eb80ac8	0.35945725
160	0xbd82f264	-0.063938886
161	0x3d1df732	0.038565822
162	0xbe80ec8f	-0.2518048
163	0xbdca40e9	-0.09875662
164	0x3e8178c0	0.25287437
165	0xbe0520f9	-0.1300086
166	0xbe495be3	-0.19663958
167	0x3e28c910	0.1648295
168	0xbe218b3e	-0.15775773
169	0x3db766c1	0.089551456
170	0x3ed00660	0.40629864
171	0xbdead63a	-0.11466642
172	0xbdc13768	-0.09434396
173	0xbe604b62	-0.21903756
174	0xbdada541	-0.08478785
175	0x3da24b7c	0.07924554
176	0x3bc0a272	0.00587874
177	0xbbf4f19a	-0.00747509
178	0x3d9f26e6	0.07771091
179	0x3dfc1849	0.123093195
180	0xbdec3e9b	-0.115353785
181	0x3e1e466f	0.15456556
182	0x3c0e449e	0.008683352
183	0x3bba778e	0.0056905216
184	0x3a8c4f63	0.0010704811
185	0xbcc1eac3	-0.023671513
186	0xbd09fc7f	-0.033688065
187	0xbdfc6432	-0.12323798
188	0xbd93417b	-0.07190224
189	0x3c4f4e93	0.012653011
190	0x3c01733f	0.007901012
191	0xbe389866	-0.18026885
192	0x3eeca720	0.46221256
193	0xbdbc03e2	-0.09180428
194	0x3d8b62e4	0.06805971
195	0xbede01d0	-0.43360758
196	0xbd8fb7f7	-0.070175104
197	0xbff02a0f	-1.8762835
198	0xbdd94efb	-0.106107675
199	0xbe3608dc	-0.17776817
200	0xbe4b6eaf	-0.19866441
201	0x3df892a6	0.12137346
202	0x3e9b1505	0.30289474
203	0xbe3b17dc	-0.1827082
204	0xbe3815c1	-0.17977048
205	0xbd7fe9ff	-0.062479015
206	0xbe046020	-0.12927294
207	0xbd65cada	-0.056101657
208	0x3d023a9a	0.031794168
209	0xbd710ff1	-0.058853094
210	0xbd08311c	-0.03324996
211	0x3d30f94d	0.0432065
212	0xbd1206e9	-0.03565112
213	0x3dfd0434	0.12354317
214	0xbd836433	-0.06415596
215	0xbda2028d	-0.07910643
216	0xbe297ff1	-0.16552712
217	0x3b9b2ea8	0.0047357865
218	0x3bd7a0ca	0.006580447
219	0x3c80a7eb	0.01570507
220	0xbc2de588	-0.010613807
221	0x3a66918c	0.0008795492
222	0xbc0d0499	-0.008607053
223	0xbba3cbd6	-0.0049986644
224	0xbd5dab32	-0.054118343
225	0xbe301a8f	-0.17197631
226	0x3e008dd7	0.12554108
227	0x3df0ffae	0.11767517
228	0x3e5d208d	0.21594448
229	0xbceeefd7	-0.029167099
230	0x3cbf7a8d	0.023373866
231	0xbc8ad3f7	-0.016946776
232	0xbe276dfa	-0.16350546
233	0xbe0cb27a	-0.13739958
234	0x3e19146b	0.14949195
235	0xbebacbc5	-0.3648359
236	0xbecff276	-0.4061467
237	0x3d414cc5	0.047192354
238	0x3c35fd3b	0.011107738
239	0x3dea0e93	0.11428561
240	0x3e0ed5af	0.13948701
241	0xbd50112a	-0.05079762
242	0xbd1e6d75	-0.038678605
243	0x3c6e6497	0.01455035
244	0x3deae2cb	0.114690386
245	0x3dd9d8b6	0.106370375
246	0x3e430921	0.19046451
247	0x3e6533c2	0.22383025
248	0x3e98d32c	0.2984861
249	0x3e252aae	0.16129562
250	0x3cf05ec1	0.029342057
251	0x3d2f7d05	0.042843837
252	0x3b9fe145	0.004879149
253	0x3d193ab1	0.037409488
254	0x3dc2d625	0.09513501
255	0x3d6fbcd8	0.058529705

fc1.bias f4 [128]
0	0xbec319fe	-0.38105768
1	0xbe96b3b9	-0.29433993
2	0xbd365107	-0.044510867
3	0xbe61593a	-0.22006693
4	0xbeb52aa2	-0.3538409
5	0xbf226b2c	-0.6344478
6	0x3e920fba	0.28527623
7	0xbdf4fd25	-0.11962346
8	0xbf184d37	-0.5949282
9	0xbd083e69	-0.033262644
10	0x3e9f6fa5	0.31139866
11	0x3d6f8deb	0.058484953
12	0xbf5fbdd1	-0.8739901
13	0xbde32923	-0.110918306
14	0x3e1ef73a	0.15523997
15	0xbe85302b	-0.26013312
16	0x3ed608d1	0.418036
17	0xbea1a030	-0.31567526
18	0xbe66e7a0	-0.22549295
19	0x3d2c16ae	0.042013817
20	0x3e17d169	0.14825977
21	0xbf0a6b9c	-0.5407045
22	0x3e6b0a82	0.22953227
23	0xbe17cc75	-0.14824088
24	0x3ea2b64a	0.317797
25	0xbcd5b542	-0.026087407
26	0xbde4053f	-0.11133813
27	0xbd73fd05	-0.05956747
28	0xbefa2c8f	-0.4886212
29	0xbe89a34c	-0.26882398
30	0x3d95fe90	0.073239446
31	0xbea21b57	-0.31661484
32	0x3e3359e2	0.17514756
33	0xbe976f82	-0.2957726
34	0xbf58c07b	-0.846687
35	0x3e3b1a5c	0.18271774
36	0xbcb8b940	-0.022549272
37	0xbecb4baa	-0.39706165
38	0xbf07d6a2	-0.5306188
39	0x3ebc8767	0.36822054
40	0x3df6c9af	0.12050187
41	0xbea9d677	-0.33171436
42	0xbf836a0f	-1.0266742
43	0xbe01072c	-0.12600392
44	0xbe933afb	-0.28755936
45	0x3e55de38	0.20885551
46	0x3d6c0c40	0.05762887
47	0x3e146c30	0.14494395
48	0xbf3ace2a	-0.7297083
49	0xbe8896a2	-0.26677424
50	0xbf29e607	-0.6636662
51	0xbf114322	-0.5674306
52	0x3e8d7f3b	0.27636132
53	0xbef7ccc2	-0.48398405
54	0xbcc7f652	-0.024409447
55	0x3e23a414	0.1598056
56	0x3de9717e	0.113986
57	0xbea75adf	-0.32686517
58	0xbe9662e8	-0.29372334
59	0x3dcf0834	0.101089865
60	0x3de3bc32	0.1111988
61	0xbe9d44bd	-0.30716506
62	0xbedb0899	-0.42779997
63	0xbe8feebd	-0.2811183
64	0xbeb17106	-0.34656543
65	0xbee0b291	-0.43886235
66	0xbf5d4ea0	-0.864481
67	0xbe86c84b	-0.26324686
68	0x3ee089a9	0.43855026
69	0xbe1338ea	-0.1437718
70	0x3e8e7256	0.27821606
71	0x3d6d7a45	0.057977933
72	0xbf1dc914	-0.61634946
73	0xbe113e1b	-0.14183848
74	0xbf059095	-0.5217374
75	0x3ccd51d8	0.02506344
76	0x3ea7ec9b	0.32797703
77	0xbdc8abf6	-0.09798424
78	0x3de3c733	0.111219786
79	0x3eac2d33	0.33628234
80	0xbe8dcbbe	-0.27694505
81	0x3e913050	0.28357172
82	0x3d787cb3	0.060665797
83	0xbedd8b7b	-0.43270478
84	0xbe7652e3	-0.24055056
85	0xbe4c3e56	-0.19945654
86	0xbd0ecde9	-0.03486434
87	0xbe1ad6a1	-0.15120937
88	0xbe6a08c0	-0.228549
89	0x3eaf2610	0.34208727
90	0xbec1d071	-0.3785434
91	0x3e3b50cf	0.18292545
92	0x3d8c8902	0.0686207
93	0xbe45a487	-0.19301043
94	0xbdce863f	-0.10084199
95	0xbe893f4d	-0.26806107
96	0xbe1a30ca	-0.15057674
97	0xbed5f4f7	-0.41788456
98	0xbeaa0618	-0.33207774
99	0xbeb4dfe0	-0.35327053
100	0xbd9a6a8c	-0.075398535
101	0x3eac8832	0.3369766
102	0xbe337c03	-0.17527775
103	0xbda30f95	-0.079619564
104	0xbe9983f0	-0.29983473
105	0xbeee29ae	-0.46516174
106	0xbf029f75	-0.5102456
107	0xbd9591c9	-0.07303197
108	0xbf0707b3	-0.52746123
109	0x3ed1397b	0.40864167
110	0xbeb23128	-0.34803128
111	0xbdeb4301	-0.11487389
112	0xbd2d89a4	-0.042367592
113	0xbe36d902	-0.1785622
114	0xbb831877	-0.004000719
115	0xbf39ea8b	-0.7262351
116	0xbe5fa884	-0.21841627
117	0xbd048707	-0.032355335
118	0xbde4a2f8	-0.11163896
119	0xbe42fe82	-0.190424
120	0xbd916c17	-0.071006946
121	0xbd788ef6	-0.060683213
122	0xbfab3145	-1.3374411
123	0xbdc3a080	-0.09552097
124	0xbe9d4172	-0.30713993
125	0xbe3f27fa	-0.18667594
126	0x3e9f6516	0.3113181
127	0xbe61e997	-0.22061764

fc2.weight f4 [128, 132]
0	0x3d92efc5	0.07174639
1	0xbe66ca58	-0.22538126
2	0x3b4acbf1	0.0030944312
3	0xbf8365be	-1.0265424
4	0x3e321242	0.17389777
5	0xbed0503a	-0.40686208
6	0x3d18a49c	0.03726636
7	0xbd9af02a	-0.07565339
8	0xbdf4adc6	-0.11947207
9	0x3d14f591	0.036367003
10	0xbd7d9899	-0.061913107
11	0xbcb9b2ea	-0.02266832
12	0xbf129455	-0.57257587
13	0xbcd3cc31	-0.025854202
14	0x3c84c0cd	0.016205216
15	0xbd150aaf	-0.03638714
16	0x3c3f7383	0.011685255
17	0xbe8b2cd5	-0.27182642
18	0x3d9809a4	0.07423714
19	0xbe98ded9	-0.2985752
20	0x3e3eb2fb	0.18622963
21	0xbc63bd3c	-0.013900097
22	0xbbcd64aa	-0.0062681036
23	0x3d6f0106	0.058350585
24	0x3e2e845a	0.17042676
25	0xbde6c76e	-0.11268507
26	0xbeaccf41	-0.33751872
27	0xbefbcda4	-0.4918033
28	0x3e21f3b0	0.15815616
29	0xbe8746f5	-0.26421323
30	0xbcb1845d	-0.021669561
31	0xbe4e8dc1	-0.20171262
32	0x3d8d52ac	0.06900534
33	0xbefab78f	-0.4896817
34	0x3dec3eb1	0.11535395
35	0x3cd5ba7b	0.026089897
36	0xbe4a3175	-0.19745429
37	0x3d483825	0.04888167
38	0x3db49150	0.08816779
39	0xbd6ab475	-0.057301003
40	0xbe35ea6e	-0.17765209
41	0x3c944d25	0.018103192
42	0xbeaa04bc	-0.33206737
43	0xbebe761e	-0.3719949
44	0x3deaf6d9	0.11472864
45	0x3e299247	0.16559707
46	0xbd3568dd	-0.04428946
47	0x3e4cf00b	0.20013444
48	0xbe00cd78	-0.1257838
49	0xbe0b3d63	-0.13597636
50	0xbd7fb10a	-0.062424697
51	0xbe1b7d6f	-0.15184568
52	0x3e89ebf2	0.26937824
53	0x3f03a8cb	0.5142943
54	0x3ca75cb6	0.02042995
55	0x397df5dc	0.0002421955
56	0x3d6eb7d6	0.05828079
57	0x3e65ccc1	0.22441389
58	0xbde90bfd	-0.1137924
59	0x3e1997cb	0.1499931
60	0xbdf7cb05	-0.1209927
61	0x3d33ab50	0.04386455
62	0x3d04bf16	0.032408796
63	0x3f0d3882	0.5516435
64	0x3cc76760	0.024341285
65	0xbd9c1fa2	-0.07623221
66	0xbefd1986	-0.49433535
67	0xbdf27093	-0.11837878
68	0xbbcfad73	-0.0063378154
69	0x3dc1c804	0.09461978
70	0xbe0112f1	-0.12604882
71	0xbdb3b192	-0.08774103
72	0x3e8df15f	0.27723214
73	0xbdf8a8a0	-0.12141538
74	0x3d95111f	0.07278656
75	0x3be0be82	0.006858648
76	0x3e504cc4	0.20341784
77	0xbeea6fb5	-0.4578835
78	0xbbc1de94	-0.005916426
79	0xbc88c2f9	-0.016694533
80	0xbfc6a6af	-1.5519618
81	0x3d05e205	0.032686252
82	0xbd98251c	-0.07428953
83	0x3df4cb72	0.119528666
84	0x3da29559	0.07938642
85	0xbe138b9b	-0.14408724
86	0x3e9412b8	0.2892053
87	0x3e4ccec0	0.20000744
88	0x3e23f4f6	0.16011414
89	0x3c704302	0.014664413
90	0xbee453e1	-0.44595245
91	0x3aa88de8	0.0012859674
92	0xbdd7c070	-0.105347514
93	0x3d0fbd86	0.035092853
94	0x3e0bc5f3	0.1364973
95	0xbeab2eff	-0.33434293
96	0x3e709d4f	0.23497508
97	0xbe3b5602	-0.18294528
98	0xbea15c14	-0.31515563
99	0xbe298425	-0.16554315
100	0xbd6f2ce2	-0.058392413
101	0x3d5004b7	0.050785746
102	0x3e04ed7f	0.12981223
103	0xbe09e97a	-0.1346797
104	0xbc437e61	-0.011931987
105	0x3e93afc0	0.28845024
106	0x3e94aff6	0.29040498
107	0xbcf9f68a	-0.030513067
108	0xbe8dd18a	-0.27698928
109	0x3c6aea13	0.014338034
110	0xbe0bf3ce	-0.13667223
111	0x3dc7ec13	0.097618245
112	0xbd85b025	-0.065277375
113	0xbb9c6001	-0.0047721867
114	0xbd3aa81f	-0.04557049
115	0xbebca411	-0.36843923
116	0x3f185c4e	0.59515846
117	0xbd19b68b	-0.037527602
118	0xbe410420	-0.1884923
119	0x3d1e4345	0.038638372
120	0xbd6cffc4	-0.057861105
121	0xbe2e3b9e	-0.1701493
122	0xbf1d40fd	-0.6142729
123	0x3e3f24cf	0.18666385
124	0x3de383e6	0.11109142
125	0xbd0790ba	-0.033097006
126	0xbe1d88f4	-0.15384275
127	0xbe4c8652	-0.19973114
128	0x3cc0a3b7	0.023515565
129	0xbc8d44c4	-0.017244704
130	0x3d9d466f	0.0767945
131	0xbce72955	-0.02821795
132	0x3cef6628	0.029223517
133	0x3d1a13e8	0.03761664
134	0x3e26eb9e	0.16300818
135	0xbd68d0ed	-0.056839872
136	0x3e6f0c0b	0.23344438
137	0xbe9693af	-0.2940955
138	0xbe9026cc	-0.281546
139	0xbd904690	-0.07044709
140	0xbd935413	-0.0719377
141	0xbd9c507e	-0.0763254
142	0xbf21b251	-0.63162714
143	0xbcad09f1	-0.021122904
144	0xbe2a58e2	-0.16635469
145	0xbeb60d54	-0.35557044
146	0x3e016a3b	0.1263818
147	0xbdde3e35	-0.10851709
148	0xbf1fdde2	-0.6244794
149	0xbe57668b	-0.21035211
150	0x3d88c785	0.0667868
151	0x3d345b63	0.044032466
152	0xbf0d41a0	-0.5517826
153	0x3883a593	6.2774074e-05
154	0xbc574dfc	-0.0131411515
155	0x3d5fc1ec	0.054628298
156	0xbc1f54cb	-0.009724806
157	0xbdf95fd3	-0.1217648
158	0xbe31138c	-0.17292613
159	0x3e14a10a	0.14514557
160	0xbd25b894	-0.04045923
161	0x3af92f4d	0.0019011289
162	0xbe2e5d4f	-0.17027782
163	0xbdd5ffc7	-0.10449176
164	0xbdaea9fb	-0.08528515
165	0xbd78d010	-0.0607453
166	0xbd4aeb1e	-0.04954063
167	0xbef990cb	-0.4874328
168	0x3e0ae9fa	0.13565817
169	0xbe9c5e67	-0.30540773
170	0x3d0b62fb	0.034029942
171	0xbe8236fd	-0.25432578
172	0xbf166984	-0.58754754
173	0xbbb862d0	-0.0056270137
174	0x3d1fcb7e	0.039012425
175	0xbea94bca	-0.33065635
176	0x3d7b1c23	0.06130613
177	0xbe5d1362	-0.21589425
178	0x3caf8cde	0.021429475
179	0xbee3d028	-0.44494748
180	0xbe649834	-0.22323686
181	0xbdf8d5ff	-0.121501915
182	0xbdccd301	-0.10001183
183	0x3e522005	0.20520027
184	0xbe74c853	-0.23904543
185	0xbe2abee2	-0.16674379
186	0x3c835a39	0.016034232
187	0xbe870fe5	-0.26379314
188	0xbe31255d	-0.17299409
189	0xbda51bf5	-0.08061973
190	0xbd90c88a	-0.070695
191	0xbd6981fc	-0.05700873
192	0x3e462cab	0.19352977
193	0xbeacd13e	-0.3375339
194	0x3c6ebc4e	0.0145712625
195	0x3df04ac9	0.11733014
196	0xbe231768	-0.15926898
197	0x3d2654a0	0.04060805
198	0xbe4a303d	-0.19744964
199	0xbe6ff095	-0.23431619
200	0xbf23d2cc	-0.63993526
201	0x3dd07fea	0.10180648
202	0xbe0a66ae	-0.13515732
203	0xbdcb3ebc	-0.09924075
204	0x3d5a3b90	0.05327946
205	0xbe5b570c	-0.21419924
206	0xbe6d2fd9	-0.23162784
207	0xbdc4fe20	-0.09618783
208	0xbe171035	-0.14752276
209	0x3c5b7f36	0.013397029
210	0xbec3164c	-0.3810295
211	0xbeb4390e	-0.3519978
212	0x3e0d01ff	0.13770293
213	0xbd686341	-0.05673528
214	0xbe46a947	-0.19400512
215	0x3dc5ba08	0.09654623
216	0x3e520369	0.20509113
217	0xbd893767	-0.0670002
218	0xbd83b0be	-0.06430195
219	0xbdb4e531	-0.08832777
220	0xbd8e8c68	-0.06960374
221	0xbdfec46a	-0.12439807
222	0xbc3c24e1	-0.011483402
223	0xbd5ace4e	-0.053419404
224	0xbeb96e4b	-0.3621696
225	0x3d3463b7	0.044040408
226	0xbdd31313	-0.103063725
227	0x3cb661f8	0.022263512
228	0x3dc1fcb5	0.09472028
229	0xbe635680	-0.22200966
230	0x3d55d687	0.052206542
231	0x3e0621dd	0.13098855
232	0xbe10e2d4	-0.14149028
233	0xbd859faa	-0.06524594
234	0xbedf53f8	-0.4361875
235	0x3e43c65d	0.19118638
236	0xbe2a6896	-0.16641459
237	0xbe7d8847	-0.24759017
238	0xbe544152	-0.20728043
239	0x3e03c4dd	0.12868066
240	0xbdfed613	-0.12443175
241	0xbe1f585b	-0.15561049
242	0xbd856bde	-0.06514715
243	0xbdbd192b	-0.09233316
244	0xbde8520a	-0.11343773
245	0xbe69d37f	-0.22834586
246	0xbd089222	-0.033342488
247	0xbd86c06c	-0.0657967
248	0xbe0f37af	-0.13986085
249	0xbcde08b3	-0.027103757
250	0xbde120df	-0.10992598
251	0x3a878785	0.0010340071
252	0xbdc9bf08	-0.098508894
253	0xbe4e903d	-0.2017221
254	0x3e09e067	0.13464509
255	0x3e3e0549	0.18556704

fc2.bias f4 [128]
0	0x3ed3174d	0.41228715
1	0x3de0c099	0.10974235
2	0x3e29badd	0.16575189
3	0x3e2b572b	0.1673247
4	0x3ebce5a4	0.36893952
5	0xbe9a3cb8	-0.3012445
6	0x3e9dff70	0.30858946
7	0xbf09465a	-0.5362297
8	0xbe47349b	-0.19453661
9	0x3d079b2b	0.033106964
10	0x3e969b8e	0.29415554
11	0xbe46772b	-0.19381396
12	0xbe2c2699	-0.16811599
13	0xbe752d75	-0.23943122
14	0x3e9bf58a	0.3046077
15	0x3ed98a3c	0.42488277
16	0x3e9b59e9	0.30342034
17	0x3ebdff90	0.3710904
18	0xbf15867a	-0.5840832
19	0x3ec491e7	0.38392565
20	0xbe0e9010	-0.13922143
21	0xbe60933f	-0.2193117
22	0xbec121f0	-0.37721205
23	0x3dfad207	0.12247091
24	0xbe64794d	-0.22311898
25	0x3ed1b3d8	0.40957522
26	0x3eb0e846	0.3455221
27	0xbe31d6db	-0.17367117
28	0x3ea5df5b	0.3239697
29	0xbebe545e	-0.37173742
30	0xbe42a157	-0.19006859
31	0xbe4d2915	-0.20035203
32	0xbea8f9de	-0.33003134
33	0x3e51f08a	0.20501915
34	0x3e45219d	0.19251104
35	0x3e208fb9	0.15679826
36	0x3e138f64	0.14410168
37	0x3ec69d42	0.38791853
38	0xbed328f0	-0.4124217
39	0x3eb89249	0.36049107
40	0x3bb070bd	0.005384533
41	0x3eb17776	0.34661454
42	0x3f062643	0.5240213
43	0xbf0d17a4	-0.551142
44	0xbe9eb56d	-0.30997792
45	0x3eaf68c8	0.3425963
46	0xbdeec50b	-0.11658677
47	0x3eb010a8	0.34387708
48	0x3e99d2ae	0.30043548
49	0x3eaa3d8b	0.3325008
50	0xbe628aac	-0.22123212
51	0x3eae510f	0.34046218
52	0x3e90264d	0.2815422
53	0xbed82206	-0.42213458
54	0xbe736be5	-0.23771627
55	0xbd88564b	-0.06657084
56	0x3e9e7b2a	0.30953342
57	0xbd3504c8	-0.044194013
58	0x3d22a505	0.039708156
59	0xbeffec54	-0.49984992
60	0xbe99be93	-0.3002821
61	0x3ee0dbc2	0.43917662
62	0x3e9375ae	0.2880072
63	0xbf044e2e	-0.5168179
64	0x3eb345ff	0.3501434
65	0x3e8679f5	0.2626492
66	0xbd255406	-0.040363334
67	0xbe06c6ee	-0.13161823
68	0x3ec36261	0.38160995
69	0x3e1aa868	0.15103304
70	0xbe0fd386	-0.14045534
71	0xbd5edd45	-0.054410238
72	0x3e93a594	0.28837264
73	0x3ee9e1b3	0.45680007
74	0xbe5ec31a	-0.21754113
75	0x3ed67bb1	0.41891244
76	0x3ece292e	0.40265793
77	0xbeaff31b	-0.34365162
78	0xbe1453fe	-0.14485165
79	0xbed6fa79	-0.4198797
80	0x3ea1f30c	0.31630743
81	0xbeb0db9a	-0.34542543
82	0xbe808410	-0.25100756
83	0x3ec6c3df	0.38821313
84	0x3ef7443e	0.48294252
85	0xbf090c3e	-0.53534305
86	0xbeb34550	-0.3501382
87	0x3ed8eefd	0.42369834
88	0xbea014df	-0.31265923
89	0xbeb4cc18	-0.3531196
90	0xbed71f7f	-0.42016217
91	0xbefcf815	-0.49408022
92	0x3ec17323	0.37783155
93	0x3eaa619c	0.33277595
94	0xbe46f719	-0.19430198
95	0x3e81bcbf	0.25339314
96	0x3eb7976a	0.35857707
97	0x3eb4dcbf	0.35324666
98	0xbe9bd87c	-0.30438602
99	0xbe2d5ed4	-0.16930705
100	0x3e89dd3e	0.26926607
101	0xbebe7e0b	-0.37205538
102	0x3becc22a	0.0072252946
103	0x3ec9fc8c	0.3945049
104	0xbebb821f	-0.36622712
105	0xbee0a56f	-0.43876216
106	0x3ebbbd31	0.3666778
107	0xbea5557c	-0.32291782
108	0x3e87207d	0.26391974
109	0xbede4fc3	-0.43420228
110	0xbefb040b	-0.49026522
111	0x3e607062	0.2191787
112	0xbeaebf44	-0.341303
113	0xbe98bd88	-0.298321
114	0x3e988bf3	0.29794273
115	0xbedd9a8d	-0.43281975
116	0x3eb688f8	0.35651374
117	0xbf107bca	-0.5643889
118	0x3ebb6514	0.36600554
119	0xbe1cf1f3	-0.15326671
120	0x3e2a2af8	0.16617954
121	0xbec00a69	-0.37507942
122	0x3e676b8a	0.22599617
123	0xbe8bf94e	-0.27338642
124	0x3c2624d1	0.010140614
125	0x3eb1d843	0.34735307
126	0x3e43cfe7	0.19122277
127	0xbccd676c	-0.02507373

fc3.weight f4 [1, 128]
0	0x3d17522b	0.036943596
1	0xb82d38a2	-4.1299158e-05
2	0x3d73ebb7	0.059550967
3	0x3d20863e	0.039190523
4	0x3d7b69d2	0.061380215
5	0xbd3cdf97	-0.04611167
6	0x3d77b7a7	0.06047788
7	0xbce67705	-0.028132925
8	0xbd7b83f0	-0.061405122
9	0x3cd42a8e	0.025899198
10	0x3cb683f1	0.022279711
11	0xbcc324b0	-0.023821205
12	0x3c66b998	0.014082335
13	0xbda38815	-0.0798494
14	0x3d0db579	0.034596894
15	0x3d41ccdf	0.04731452
16	0x3d0355b1	0.032064144
17	0x3db1410a	0.08654983
18	0xbd2b9f7e	-0.04190015
19	0x3c945172	0.018105242
20	0xbcc3eabc	-0.023915641
21	0xbd8a4a25	-0.06752423
22	0xbd269077	-0.040665116
23	0x3d8d599e	0.06901859
24	0xbc64ade8	-0.013957478
25	0x3e141828	0.1446234
26	0x3d216607	0.03940394
27	0xbd2116ce	-0.03932839
28	0x3d0ba415	0.034092028
29	0xbd81c6ab	-0.06336721
30	0xbd2c368f	-0.04204422
31	0x3b184038	0.0023231637
32	0xbd7b2f15	-0.061324198
33	0x3dbd425d	0.092411734
34	0x3d73428f	0.059389647
35	0x3d14846e	0.036259107
36	0x3d7c785b	0.061638217
37	0x3cfddb4d	0.03098836
38	0xbd21868a	-0.039434947
39	0x3c890a54	0.016728558
40	0x3ca74e4a	0.020423073
41	0x3cad410e	0.021149185
42	0x3e03f01a	0.1288456
43	0xbd9f15ec	-0.07767853
44	0xbd05a9ad	-0.03263252
45	0x3de21c49	0.11040551
46	0xbda0ee8d	-0.07858
47	0x3cf03169	0.029320436
48	0x3d185f84	0.037200466
49	0x3c878ef6	0.016547661
50	0xbcae9ebb	-0.021315923
51	0x3c9ea4ea	0.019365747
52	0x3cacb09e	0.021080311
53	0xbd1df4c4	-0.038563505
54	0xbc983622	-0.0185805
55	0x3dd8ed85	0.10592178
56	0x3c919f51	0.017776163
57	0x3da7f183	0.082003616
58	0xbd91cbf8	-0.07118982
59	0xbd1c8461	-0.038212184
60	0xbdcb9323	-0.099401735
61	0x3d10b244	0.035326257
62	0x3ca57f8d	0.020202423
63	0xbd0bd550	-0.034138978
64	0x3ca9ca01	0.020726206
65	0x3cf9f6da	0.030513216
66	0xbd031163	-0.031999003
67	0xbd8d7219	-0.06906528
68	0x3dea9f39	0.114561506
69	0x3d6e2b79	0.058146928
70	0xbd6035f9	-0.054738972
71	0x3c8d028e	0.017213132
72	0x3d037c70	0.032101095
73	0x3d487e35	0.048948485
74	0xbd0e29a0	-0.034707665
75	0x3dbfba9b	0.09361764
76	0x3d944be0	0.072410345
77	0xbd2cc527	-0.042180207
78	0xbdd9b376	-0.106299326
79	0xbde19e0d	-0.11016474
80	0x3d3e82ce	0.046511464
81	0xbd996ee8	-0.07491857
82	0xbcb067f1	-0.021533938
83	0x3cf2c3d4	0.029634394
84	0x3d2b7457	0.041858997
85	0xbd9a7b08	-0.075429976
86	0xbe4f1e01	-0.2022629
87	0x3d8b6c8f	0.06807815
88	0xbd11cb8f	-0.03559452
89	0xbd166fd7	-0.036727753
90	0xbd20245f	-0.039097186
91	0xbd7b4444	-0.0613444
92	0x3ca8e60c	0.020617507
93	0x3d876b74	0.06612292
94	0x3db62e9f	0.08895611
95	0x3c9a7897	0.01885633
96	0x3d12a652	0.035803147
97	0x3e1f3b72	0.1555002
98	0xbd96685b	-0.07344123
99	0xbd723743	-0.059134733
100	0x3dbbd61c	0.091716975
101	0xbcf78207	-0.030213369
102	0x3e3a8b9c	0.18217319
103	0x3d2213f5	0.039569814
104	0xbdf7460b	-0.120739065
105	0xbd6f121c	-0.05836688
106	0x3d8c8b9f	0.06862568
107	0xbd648774	-0.05579324
108	0x3c84c51d	0.016207272
109	0xbd23f069	-0.040024195
110	0xbcef5ff9	-0.029220568
111	0x3d7f9360	0.062396407
112	0xbc940048	-0.01806654
113	0xbda490e0	-0.08035445
114	0x3dac5f56	0.084166214
115	0xbce4a457	-0.027910395
116	0x3ca0fb8b	0.019651195
117	0xbdf42e78	-0.11922926
118	0x3cc1c93d	0.023655528
119	0xbdd6b056	-0.10482852
120	0x3cdfcb66	0.027318668
121	0xbd416b59	-0.047221515
122	0x3d0c6192	0.034272738
123	0xbdc83605	-0.097759284
124	0xbd72c5c8	-0.05927065
125	0x3cee4342	0.029084805
126	0x3d1a2250	0.03763038
127	0xbd635f0c	-0.055510566
