checkpoint_actor.pth (torch_old, 303117 bytes, 6 tensors)

fc1.weight f4 [256, 33]
00000000: 34ef fb3d c530 c93d aefc ec3d 8ee1 f43c
00000010: 769e 03be ed7e 91be c66c 66bd 9f87 77bc
00000020: 27c9 edbe 71fe e83d 64c5 b33c 7e6f babd
00000030: 214a 5a3d 5987 9e3d 3740 2abd d305 38bc
00000040: 4cdf 843e 6478 24bd d248 09be 98ed 9f3c
00000050: 56fc 203e 2c35 2d3d 8c94 3ebd 69a6 693d
00000060: b4c3 9b3d 07dd 773d 7712 a2be e8e8 2a3e
00000070: fef5 5d3d ae32 4d3c ebe4 543c f717 983c
00000080: cfbb 15be 64a6 073e 2d2c 81bd 1a18 20bd
00000090: 5b35 48bc ac21 4ebe e54d 2bbe 6d28 853d
000000a0: 6f18 79bd 48e0 2abd 0ffa ba3c 2192 fd3c
000000b0: 0ea2 05bc 95fa 96bd a6d2 4fbe a71e 3bbe
000000c0: 9f0c 223d 076b aabe 8bb0 8fbd a9a1 9abd
000000d0: 46e9 38be 6fa5 a93c a0ee fe3b 841b 24bd
000000e0: b8f9 1ebe 9bb4 a4bd cb81 243d 3102 ce3d
000000f0: 8665 b4bd e780 4d3e a6c6 48bd b029 29bd
00000100: 6ade a3bd aaed 3e3f eae3 673d 78ef b7bb
00000110: e5fa 653c 42fc 473d 857a a1bd 0b5e 973d
00000120: 11ec a1bd 89e7 a73d 05ea 43bd 1849 a1bd
00000130: 8f75 2b3d 146d f13d 1176 edbc 81c7 f03d
00000140: 3c96 d7bc 77c8 a2bd 72b6 d03d af67 7cbe
00000150: 9667 b1bd c9e7 a8bd 0b79 463d fefc eb3b
00000160: 65dc cf3d b7b0 3f3d c70f a93b 15b9 7f3d
00000170: 6608 583d 49c7 223d e562 40bc 7620 26bd
00000180: 8132 a53c daeb 263c 0a9f 363f 36be 1ebe
00000190: 0f3b 29be 93cc 583e dc10 adbe a06f c5be
000001a0: 7f17 8a3e 2487 3a3e 6fd3 26bd d5db 14be
000001b0: 0512 18be 9884 6bbd 7f8f fa3b 88dc f03c
000001c0: e479 343d 84bd d13c dbb3 fc3d ba18 35bd
000001d0: a487 973d fae1 da3d 7a4e 42be 9095 6fbb
000001e0: 0314 543d 9df9 bd3c 6e54 2dbd ff28 9ebc
000001f0: 7fe1 a93d f55f 553e 360a d7bb cb10 24bd
00000200: 6aaa 013b f7cc a53d 1746 ddbc 36e8 923d
00000210: d67f f3bd 4d4b c9bd 5c93 9abd def9 b43d
00000220: 8cee e83d 86ec 223d d920 43bd 0f0a fa3c
00000230: 82a3 b23d a448 9c3c 20f6 b03c 1a46 58bc
00000240: 83d6 cf3b 3cea e9bc 92fa f73d f7af e63d
00000250: 29d2 f6bd b1b7 163d de44 0fbe cb2d 413d
00000260: 2d6c 7f3d 2369 fdbd 4d95 e1bd bbe6 a33d
00000270: 59af a83d 8ac0 123d bfa6 5dbe 98f4 3ebd
00000280: 1670 ad3d 7fac 43be f821 df3d 2f81 093e
00000290: 94fa ff3e 91e8 91be 80e4 c0bd 7ae8 ed3d
000002a0: 4914 b43d e504 b03d bc06 c43c 0991 083e
000002b0: c8d5 013c 782b bf3c 156a 3e3e d8bf 08bd
000002c0: ee60 f5bd 0df9 693d 4995 b73d 7c4f a7bd
000002d0: fffe aabd ed0d 4bbe 7698 efbd 55a0 ab3d
000002e0: 391c a0bd 930d 033e 50ec 493d 03d2 203e
000002f0: 9960 d5bd b5c8 5a3d e60a 233d 3169 993d
00000300: 42fb a7bd b61e c33a 8d02 13be ec95 e33d
00000310: 74a3 53bd 1440 cebe 917e ad3d ec4b 3cbd
00000320: f0fc 7cbc 2ad1 95bd f802 a2bd 1f01 eabc
00000330: 8e77 123d bbfd 4a39 939b 17be 1886 a3bd
00000340: 3687 8e3d 87cc a1bc b015 913d 9fa5 fdbd
00000350: 85e7 8f3c ff43 223b fc42 883e 9dba 6c3e
00000360: e0cc b9bd 7009 d1bd 99ca 883d 6b52 e13d
00000370: 8b85 1bbd a8c7 0e3d 2ece f7bc a369 f83d
00000380: 6172 c03d 1ba8 e63b 02fe 413e 4c79 a23d
00000390: 3f22 9d3d f729 a1bd e1e5 723f a0f3 f3bd
000003a0: 1325 973c 1495 623e 810a e73c d79b d4bc
000003b0: 5d8c f4bd cab4 30bd db66 c93b 2455 33be
000003c0: d84a f83d 79fe 73bc b815 a4bd 0bf7 3cbd
000003d0: 158a 6dbe ea9d 4d3e 0c28 adbd 46fa 0b3e
000003e0: f975 87be 381a 713e 5705 ebbd fcd9 03bd
000003f0: 247e 2f3d 3dc2 77bc a916 60be 181f 8f3d
0.12301484 0.09823755 0.11571632 0.02989271 -0.12853417 -0.2841715 -0.05625608 -0.015108018
-0.4644253 0.11376656 0.02194471 -0.09103297 0.05329335 0.07740659 -0.041565146 -0.011231857
0.25951612 -0.040153876 -0.13406685 0.019522473 0.15721259 0.042287037 -0.046528384 0.057043467
0.07605687 0.060513522 -0.31654713 0.16690409 0.054189675 0.01252429 0.012994031 0.018566115
-0.14622425 0.13247067 -0.06307254 -0.039085485 -0.012219752 -0.20130032 -0.16728933 0.06501851
-0.060814317 -0.041717798 0.022824315 0.030953469 -0.008156313 -0.073720135 -0.202952 -0.18273412
0.039562818 -0.3328478 -0.07016095 -0.075503655 -0.18057737 0.020708768 0.007779911 -0.040065303
-0.15524948 -0.0804226 0.040162843 0.10059012 -0.088084266 0.20068704 -0.04901757 -0.041299522
-0.080014065 0.74581397 0.05661384 -0.0056132637 0.014036869 0.048824556 -0.07884697 0.07390984
-0.07906354 0.08198459 -0.0478306 -0.0787527 0.04186016 0.11788383 -0.028986963 0.11756802
-0.026316755 -0.07948392 0.10191049 -0.24648927 -0.086623356 -0.082473345 0.04845528 0.00720179
0.10149459 0.046799388 0.0051593515 0.062432367 0.052742384 0.039740834 -0.011742328 -0.0405583
0.020165684 0.010188067 0.71336424 -0.15502247 -0.16526435 0.21171789 -0.33801925 -0.38561726
0.2697105 0.18215615 -0.040728983 -0.14536984 -0.14850624 -0.057499498 0.0076465006 0.029402032
0.044061556 0.025603063 0.12338992 -0.044213034 0.07398918 0.10687633 -0.18975249 -0.0036557652
0.051776897 0.023190314 -0.042316847 -0.019306658 0.08294963 0.20837386 -0.0065624965 -0.040055078
0.0019785413 0.080957346 -0.02701096 0.07173197 -0.11889617 -0.098288156 -0.07547638 0.08836721
0.11373624 0.039776348 -0.047638748 0.030522374 0.08722593 0.019077606 0.021601737 -0.013200307
0.0063427105 -0.028554074 0.12108339 0.112640314 -0.120518036 0.036796276 -0.13991114 0.047162812
0.062359024 -0.12373569 -0.11014805 0.08002993 0.0823657 0.03582815 -0.2164564 -0.04661998
0.08468644 -0.19108771 0.10895151 0.13428186 0.49995863 -0.28497747 -0.09418583 0.11616607
0.087929316 0.085946836 0.023928992 0.13336577 0.007924505 0.023336157 0.18595155 -0.03338608
-0.119813785 0.05712228 0.08964021 -0.08169457 -0.08349418 -0.19829531 -0.116990015 0.0838019
-0.07817883 0.12798147 0.04929763 0.15705113 -0.10418815 0.053414065 0.039805315 0.07490767
-0.082022205 0.0014886472 -0.14356442 0.1111258 -0.051669553 -0.40283263 0.08471406 -0.045970842
-0.015441164 -0.073152855 -0.079107225 -0.028564988 0.035758547 0.00019358743 -0.1480544 -0.07984561
0.06959383 -0.019750847 0.07084215 -0.12385105 0.017566452 0.0024759767 0.26613605 0.23118062
-0.0907228 -0.10206878 0.066792674 0.11002048 -0.037969153 0.034858376 -0.030249681 0.121295236
0.09396816 0.0070390827 0.18944553 0.07933292 0.076725475 -0.07869332 0.9488202 -0.11911702
0.018450296 0.22127181 0.02820325 -0.025953216 -0.11940835 -0.043141164 0.0061462945 -0.17512947
0.1212365 -0.014892214 -0.08011955 -0.046134036 -0.23197205 0.2007977 -0.08454904 0.1366969
-0.26457193 0.23545158 -0.11475628 -0.032190308 0.042844906 -0.015121994 -0.21883644 0.069883525

fc1.bias f4 [256]
00000000: 00bc 03be 3399 913d f968 233e fa99 113e
00000010: d5bc 143c 468d 32bd 65c7 02be 6fbb a83b
00000020: e188 08bd ce13 99bc 1def 9e39 b417 19bd
00000030: 3b20 143e f64c f63d eaff fcbb b2ef 8dbd
00000040: a690 0c3e 203c 89bd fc5c 78bd 741b 853d
00000050: c1b9 afbd 6322 1a3e 6760 163e 5ad7 fcbc
00000060: 996e 973d c76a 3a3d dff5 04be 2914 e8bc
00000070: 0cd8 3cbd e0ad aa3d 6f4b d33d 801a 3e3d
00000080: 5611 213e 7e17 c9bb 5ab2 a63d e266 8fbd
00000090: a9ed 463d a280 82bd 12dd 013d 5b7e 993d
000000a0: ab4e 90bc a7c2 1c3e 0ede 9a3b c646 913e
000000b0: 109f 85bd a1c5 22bd c799 6e3d e6f4 01bd
000000c0: 4b67 e73d 7888 8dbc e1aa ebbd 72b9 01be
000000d0: 07ac ab3d 952a 373e 1db8 643e bc32 33bc
000000e0: 2012 093e fb21 0d3e bbc0 263e 7cea 62bd
000000f0: 46aa 843d 82f8 6b3d 21bf 993c a110 303e
00000100: e0d5 d5bd 2163 57bd b303 503e a032 213c
00000110: f85b 913d 7bd6 1b3e d953 de3d 2215 513c
00000120: dcef 01bd b194 413e a0f6 3fbe 8371 3fbd
00000130: 84dc 19be 26a9 e0bc eec1 10be 99ee e3bd
00000140: 2b3b d63d 4cd5 393e 33f1 43be 44bb 9ebc
00000150: 9431 463e b0b0 9a3d 9454 c3bd b99b f53d
00000160: 902f 72bd a167 59bd 335e da3d 4d71 9abe
00000170: cdf5 28bd e65a 1c3e dcf7 153c 01b7 153d
00000180: c9f7 033d 986b 8bbd cdfb 16be dbdf 57bd
00000190: 805d 253c 62e8 343e 7efa 6c3e fdeb 133d
000001a0: 6e5d b73d 70ba 0d3e d078 33bd f96f 3dbe
000001b0: 080e 5f3c 8c5d e23d 7093 4f3c 383d 6a3e
000001c0: e8c8 143e 4d9c 043e 80ff 543e dd06 1e3d
000001d0: 307e 77be af63 ed3d e3ff 7f3e 9306 44be
000001e0: ec19 c5bc b1e8 023e 7be4 f1bb 0c2e bbbd
000001f0: 1bb7 ccbb 611e 183c 69c7 da3d 4ff5 fb3c
00000200: 3ee3 463d 88b4 66bd 6fa8 a33d 9601 963d
00000210: 863c 47bd 4f82 143e d564 41bd 5fcf 61bd
00000220: 175e 223e 6d13 053e e157 193d 291e 383e
00000230: b5bc 75bd 51f7 f1bd 7527 513e 8dc8 fe3d
00000240: 4aec 7f3c 42e8 663e 4658 4e3e 389e 6a3d
00000250: f9bc c63d 6906 8f3d 4502 b23c 046b edbd
00000260: 737f 843d 1a91 f3bd f440 bfbc 7c06 0abc
00000270: d456 b13b 9982 0fbd 8eef b8bd bba5 7d3e
00000280: e06e 10be c61f ddbc 7972 003b 8dae d73d
00000290: a1c1 27be 6e6b 2a3d 917f 02be 06d9 083d
000002a0: b13d 02be 1961 c1bd b7be 6c3b fdfc b83d
000002b0: 1a1a 503e 7f4d 2e3e 9511 8d3e 4046 de3c
000002c0: cfd5 953e 7533 d33d f3a0 52be ccde 1c3d
000002d0: 65af 963c 44e7 d4bd c613 5dbd e062 743e
000002e0: 9897 043e 618f e83d 114f 15bd c296 a3bd
000002f0: 9910 2a3e 8f77 e1bb c908 0bbe 90f7 d9bd
00000300: 7529 a63d 4d4e 283e 344d 023e 9c89 243e
00000310: a67e 25be 24dc babd c0b0 96bd ee0d e5bc
00000320: f447 203c 0b23 373d ae17 b4bb 412d 87bd
00000330: e843 813e 1a76 113d 257f 8fbb 7b58 c03d
00000340: e729 a0bd 8764 88bd 8ccb 0b3e 6ad0 fbbd
00000350: 919f 563e f4e9 20be 1475 c63d be5e 6d3e
00000360: 0fbd 153e 62c3 22bd 7fee f23d 487b 2cbe
00000370: d5bf d33d 4779 7b3d cf05 3b3e 4bbe eb3c
00000380: f70b d43d 533d 693d f3e0 34be 6034 853d
00000390: 9abc f53a 96ac 183c 3b82 1dbd 1b7d 3f3c
000003a0: 8f3b 3e3d 2766 603e 0c2d eebb 88eb c73c
000003b0: 4c8d eabd b26d 373e adca 1c3e c3aa a5bd
000003c0: 006d d63d e982 6d3e b036 88bc 76e7 ed3d
000003d0: ea53 0c3e 3ef9 a3bc 53d6 323e 1b7a 103e
000003e0: 8c51 78bd 9299 11bc ee5e 873d fa8f fc3c
000003f0: 7fd8 0f3e 2d14 f3bc 6601 c7bd bd1d d93d
-0.12864685 0.071092986 0.15958013 0.14218894 0.009078224 -0.04359176 -0.12771375 0.005149297
-0.033333663 -0.018686201 0.00030314262 -0.03737612 0.1446542 0.12026398 -0.007720937 -0.06930484
0.13727054 -0.06700921 -0.06063555 0.06499377 -0.085803516 0.1505218 0.14685212 -0.030864406
0.07394142 0.045511987 -0.12984417 -0.028329926 -0.046104476 0.08333945 0.10317122 0.04641199
0.1572927 -0.0061368337 0.081394866 -0.07002045 0.048566494 -0.06372191 0.03170497 0.074948035
-0.017615637 0.15308629 0.004726178 0.28374308 -0.065244794 -0.039739255 0.058252122 -0.031727694
0.112989984 -0.017276987 -0.11507202 -0.12668398 0.08382421 0.17887338 0.22335859 -0.010937389
0.1338582 0.13782494 0.16284458 -0.055399403 0.064777896 0.057610042 0.018767895 0.17193843
-0.10441184 -0.05258477 0.20313911 0.00983873 0.0709762 0.15218537 0.108558364 0.012761386
-0.03172289 0.18904378 -0.18746424 -0.046739113 -0.15025526 -0.027424406 -0.14136478 -0.11129493
0.10460504 0.18147773 -0.19134979 -0.019376405 0.1935485 0.07553232 -0.09537616 0.11992592
-0.05912739 -0.053077344 0.10662498 -0.30164567 -0.04125004 0.1526905 0.009153333 0.03655148
0.03221873 -0.06807631 -0.14744492 -0.05270372 0.010093093 0.17666772 0.2314243 0.036113728
0.08953367 0.13840652 -0.043816388 -0.18499745 0.013614185 0.11052999 0.012669429 0.22874916
0.14529765 0.12950249 0.2080059 0.038580764 -0.2416923 0.11591279 0.24999957 -0.19143133
-0.024060212 0.12784077 -0.0073819733 -0.09139642 -0.006247414 0.009284587 0.10682566 0.03075662
0.04855656 -0.05632451 0.079911105 0.07324521 -0.048641704 0.14502834 -0.0472153 -0.055129405
0.15856205 0.12995692 0.037437323 0.17980255 -0.05999442 -0.1181475 0.20425208 0.12440596
0.015620301 0.22549537 0.20150861 0.057279795 0.097040124 0.069836445 0.021729598 -0.11592677
0.064696215 -0.1189291 -0.023346402 -0.008424398 0.005411962 -0.035036657 -0.090300664 0.24770252
-0.14104795 -0.02699269 0.001959948 0.1053134 -0.16382457 0.04160636 -0.12743975 0.033410095
-0.12718846 -0.09442348 0.0036124417 0.09032629 0.20322457 0.1702175 0.27552477 0.027133107
0.29264686 0.10312549 -0.2056921 0.038298413 0.018394182 -0.10395673 -0.053973936 0.23865843
0.12948453 0.11355472 -0.036452357 -0.07987739 0.16607894 -0.0068807076 -0.1357757 -0.10642922
0.08113376 0.1643612 0.12724763 0.16068119 -0.16161594 -0.0912402 -0.07357931 -0.027960744
0.00978278 0.044711154 -0.005495987 -0.066004284 0.2524712 0.03551302 -0.0043791705 0.09391876
-0.07820492 -0.06659799 0.13651866 -0.12295611 0.20959307 -0.15714246 0.096903 0.23180673
0.14622901 -0.039737113 0.11861896 -0.16843903 0.103393234 0.061394956 0.18263935 0.028777262
0.103538446 0.05694325 -0.17663936 0.0650413 0.0018748224 0.009318491 -0.038454276 0.011687542
0.04644352 0.21913968 -0.0072685536 0.024404302 -0.114527315 0.17912939 0.1531169 -0.08089211
0.10470009 0.2319447 -0.01662764 0.11616413 0.13703886 -0.020016309 0.1746457 0.1410908
-0.060624644 -0.008886712 0.06609903 0.030830372 0.1404743 -0.029672706 -0.097170636 0.10601375

fc2.weight f4 [256, 256]
00000000: a0ef 823e 2728 7b3d f068 9ebd 9f54 8b3e
00000010: 0f24 5cbe 1852 c53d 947e c3be 4a9a ea3b
00000020: 325d 2b3e afdf e33d c965 e7bd d653 723d
00000030: 2594 7c3e 850b e7bd 8257 23bc 48df a43d
00000040: b2f4 89be b822 c53d 6597 57be f674 303e
00000050: b5d6 8e3d 4267 ed3c d46c 52be 3c19 a3bd
00000060: d6b8 6ebe d4e9 3dbd 8e1e ba3d a152 533d
00000070: 69fa 8a3c dba8 febb 21db 58bb b667 2c3d
00000080: 40b8 823a 390d 093e 984a 20be 36b0 3fbe
00000090: 8b66 943d b22c 9dbc bdd7 4a3e 4c40 34be
000000a0: 0f91 043e a280 9b3e df73 6cbe dec4 c13c
000000b0: 5594 64be db0d 3dbd ebf7 5abd daf5 053e
000000c0: 2e10 8b3d 7977 2c3d 2b01 a93d 16e9 5e3e
000000d0: 8f65 073d f538 663e d75a 103e 72c8 5e3e
000000e0: 0627 05be c269 c2be 0e2d 543e 2a2a 393e
000000f0: b67c 193e 4a89 daba cb94 bb3e 0fec 0fbe
00000100: 95e2 3e3e f9e5 4e3d eaa5 be3c ec94 533e
00000110: 9224 983e beb3 0c3d e493 e2bd faa1 583e
00000120: f404 fa3d b1a5 9f3e 3012 083e d474 b5bc
00000130: 1788 653e bfef 2fbe 5272 2cbd ac71 db3d
00000140: cc12 a7bd 263c 493c 4163 83be 0946 c73c
00000150: 01d1 ee3c ae87 25bd 5dd7 44bc 576a e83d
00000160: ecf4 763d 23be 0fbe 04c0 11bb 42be d73e
00000170: 47bd eabd d1c6 ecbd 5392 db3d 56ba a5bc
00000180: 172a 96be 5ab6 a8bd c519 9bbb c9a8 abbd
00000190: 54b2 b1be 8611 033e 58ae 273e 67e1 0e3e
000001a0: 75ee ad3d f075 a03d c19d 8e3d 3883 8e3d
000001b0: 71dd 743e 5140 d33d dd50 78bd 8aa6 863d
000001c0: 2791 183e 8158 dabc e24c 0d3e 651c 95bd
000001d0: db97 94be e518 043c d1bf 5c3a 408a 833d
000001e0: ead9 21be 7670 0c3e a039 243d c0cb 963e
000001f0: aad2 0bbe 11a7 ddbd fa6f 0e3e 281e 08bd
00000200: acb8 30bd 2fef 88bd 649a 77bd e237 3f3d
00000210: 67cd 9f3d 7395 79bd a65a e1bd 29ad 7f3b
00000220: 4a3d 033d 48c1 ddbc b52c a1b9 2870 89bd
00000230: f12d 9cbd 351b cc3e a70b 01bd d1ab 903d
00000240: 060e 34be 1411 be3d 3bea 3b3c 4217 1e3e
00000250: e38d 7a3d e1af 5fbe a7ce 06bd d932 683e
00000260: 578f 0fbe 20df 9e3c 57d5 0e3b d451 d3bc
00000270: 06ed 32be 2d95 7c3e dd2b 09be a97b 83be
00000280: 6465 e93d 2ea3 d43e 975d 8b3d 79fe 96bc
00000290: b83b 4e3e e688 293e 7bd6 6a3e a414 053d
000002a0: 7632 0d3d 396b a0be a82d b8bd ae58 a8bd
000002b0: 73e5 78be 9085 003e 8b72 053e e489 afbd
000002c0: 575c d4bd eb84 2f3e 482b 12be 37fc 25be
000002d0: ad19 a2bd 4483 d23d a57f 183c 69b4 ca3d
000002e0: 3c1e 85be 054a 48be 518b 23be 3004 a7bd
000002f0: a76f 3e3e 0d9f 70bd 7bc9 0c3c 7620 d9bd
00000300: d0a4 b4be 2ea5 c3bd 4c58 aabe 2bcd 39be
00000310: ca0e 493e d574 ed3c 495b b1bd ceec 93bd
00000320: c70d 27be e63e 7e3c 3d46 98be fd4c 2abc
00000330: 0ee9 c13d aae1 8bbc 423a 64bb 3efa fdbd
00000340: a58e 79be 9005 dabd e5c3 fa3c 8896 2d3d
00000350: a3c0 76bd 8b37 dfbd 55c5 e8bc 9d22 b2bd
00000360: d202 b8bc aa43 b23c 4de2 38be 2413 323d
00000370: 4fe0 fd3c 5558 b53c cb5c 00be b600 a53d
00000380: e170 c43c 3dbe 2b3e 181a e7bd 3e5c 403c
00000390: cb9b c53d 57a1 90bd 6aaa c4bd 8ac3 ecbd
000003a0: ec59 e0be 5238 6f3d badb 8f3d e883 963d
000003b0: 5d68 e83b 9546 99be 5535 683e 0bf9 8abd
000003c0: 5d0c c83d 67b1 e43d 7701 003d b843 2e3d
000003d0: 8043 313e c78a 03bc 5a65 863e 38b8 583d
000003e0: da97 1d3e cb61 ee3d 95b4 f23d 7527 e0bd
000003f0: 3467 6b3d 5b72 ca3e 4658 3bbe a7c6 8d3c
0.25573444 0.06131759 -0.07734859 0.27212998 -0.2149813 0.09634799 -0.3818251 0.007159506
0.1673477 0.11126649 -0.11298711 0.059161983 0.24665888 -0.11281494 -0.009969594 0.080504
-0.269445 0.09625763 -0.21053846 0.17232117 0.06974546 0.028979901 -0.20549327 -0.079637975
-0.23312697 -0.046365574 0.09087859 0.051592473 0.016965108 -0.007771594 -0.0033089595 0.042091094
0.0009973124 0.1338395 -0.15653455 -0.18719563 0.07246121 -0.019186351 0.1980886 -0.17602652
0.1294596 0.30371577 -0.23091076 0.023653444 -0.22322209 -0.04615579 -0.05345909 0.13082066
0.067901954 0.042106126 0.08252176 0.21768603 0.03305584 0.22482665 0.14097153 0.21756151
-0.13003168 -0.37971312 0.20720312 0.1808249 0.1498898 -0.0016672995 0.36636958 -0.14054893
0.18641122 0.050512288 0.023272473 0.20662278 0.297154 0.034351103 -0.11063364 0.21155539
0.12207976 0.311811 0.13288188 -0.022150435 0.22415195 -0.171813 -0.04210121 0.107150406
-0.08157882 0.012282407 -0.25661662 0.024325388 0.029152395 -0.040412597 -0.012014237 0.11348408
0.06029217 -0.14037375 -0.0022239694 0.42137343 -0.11461883 -0.11561359 0.107212685 -0.020230453
-0.29328987 -0.08237906 -0.0047332966 -0.083818026 -0.34706366 0.12799653 0.163751 0.13953172
0.08492748 0.07834995 0.06963683 0.06958622 0.23912598 0.10315002 -0.060623992 0.065747336
0.14899121 -0.02665353 0.1379886 -0.072808065 -0.29022107 0.008062576 0.0008420917 0.064228535
-0.15805784 0.13714775 0.040094018 0.29452324 -0.1365458 -0.10822881 0.13909903 -0.033231884
-0.043144867 -0.06686246 -0.060449973 0.046684153 0.07802849 -0.06093354 -0.11003618 0.0039013124
0.03204087 -0.027069703 -0.00030741622 -0.06710845 -0.0762595 0.39864507 -0.031505253 0.070640214
-0.17583475 0.09280601 0.011469419 0.1543856 0.06117047 -0.21844436 -0.032911923 0.22675647
-0.14019524 0.019393504 0.002179464 -0.025795855 -0.1747323 0.24666281 -0.13395639 -0.25680283
0.11396292 0.41530746 0.0680496 -0.018431889 0.20139968 0.16556129 0.2293338 0.032490388
0.03447195 -0.31331804 -0.08993083 -0.08220039 -0.24306278 0.1255095 0.13031976 -0.085712224
-0.10369175 0.17140548 -0.14274323 -0.16209494 -0.079150535 0.10278943 0.009307777 0.09897692
-0.2599963 -0.19559486 -0.15971114 -0.081550956 0.1859728 -0.058745433 0.008592959 -0.106018946
-0.35281992 -0.0955299 -0.3327049 -0.18144672 0.19634548 0.028986374 -0.086599894 -0.07222901
-0.1631385 0.015517926 -0.29741088 -0.010394332 0.0946828 -0.017075378 -0.0034824763 -0.124012455
-0.24370821 -0.10645592 0.030610988 0.042379886 -0.060242306 -0.10899266 -0.028414408 -0.08698008
-0.022462282 0.02176078 -0.18055077 0.043475285 0.030990748 0.022136847 -0.12535398 0.08056776
0.023979606 0.16771789 -0.11284274 0.011740742 0.09648856 -0.07062023 -0.096028164 -0.115607336
-0.43818605 0.05840332 0.070243314 0.07349378 0.007092519 -0.29936662 0.22676595 -0.067857824
0.09767983 0.11166649 0.031251397 0.04254505 0.17310905 -0.008028693 0.262492 0.05291006
0.15389958 0.11639746 0.118508495 -0.10945026 0.05747147 0.3954037 -0.18295392 0.017306639

fc2.bias f4 [256]
00000000: aede 323d b174 f8bc 8b1e 9c3d 2510 2cbd
00000010: ebef f7bc 1e0a 8fbb ee0e 053d a548 fdbd
00000020: cc60 033d 9359 793c 6c5c 12bc b45e 08bd
00000030: d929 76bb 3f0a a43c 75af 56bc e90e 4c3d
00000040: 6f6f 75bd 34ad 1e3d 3057 27bd 2e93 87bc
00000050: de5f 613d 6ed6 3f3b 9e11 2b3d c5b2 953d
00000060: c6f3 693d 788d 293b e555 ac3d 5ce3 3dbd
00000070: 8a33 273c 3ac1 9bbc a037 e4bb fe2d bfbd
00000080: 94cc d2bd dde7 133c bc6b c9bd fd11 013d
00000090: fe00 613c 6676 a0bc 6cbb 71bd d382 79bd
000000a0: cc24 01bd 7db7 d6bc 6682 21bd f9b2 dabc
000000b0: 6719 cfbd 3cb1 15bc 2fea 26bd dbfa c3bc
000000c0: cf9e 87bd 326c e1bc 8c1d 52bd 4465 ed3a
000000d0: 70ab 97bc 1c88 bdbc 9e47 583d fdb9 5e3d
000000e0: 8747 d1bd 883d 3f3b 8009 25bd 4474 ddbc
000000f0: d67d 3e3d a2c4 d8bd 0949 3ebc 6301 563c
00000100: ac24 7f3d a581 b4bd a433 cbbd c610 58bc
00000110: c370 853c f797 573d 56c9 853c 4a11 c0bc
00000120: f2ad 4d3d 0675 0a3d 9735 033d 8992 77ba
00000130: 5b59 50bd d42e 34bd f9f1 93bd 6620 b33d
00000140: c6b9 cc3c 734b 7abd 6426 9f3c 2376 bbbc
00000150: 354c 8dbc f766 9b3b 8100 883d c67b 1c3d
00000160: f268 3cbc 20eb 81bd 3b1d 963c b3bd 82bb
00000170: bab7 1ebd 17d9 8fbb eae8 fabb 2ae1 983b
00000180: ae5f 97bd c61a 6c3d fa08 963d 5313 553d
00000190: f6fb 9bba d5ce ddbc 2cd5 093c 69d2 753c
000001a0: e950 7dbd 1056 bcbc 1a2f 813d 79dc b23d
000001b0: 91a4 04bd 85fb 513d ab1e 5cbb 3982 203d
000001c0: 14d0 263b f9b6 013a ef04 0d3d 8840 083d
000001d0: cadb 5a3c 982c f63c dbdc 55bd 9e6c b3bc
000001e0: 1617 c0bc 2a4b a4bd 0004 253d 6b1f efbb
000001f0: e873 3fbd 1d33 973c e4b3 733d ceca 133d
00000200: c47c 7bbd 64d8 64bd 8d78 583d 3c98 953b
00000210: bbd9 1abd 1167 933d 6c6f 763d 7622 b0bc
00000220: 0ced 1ebd d71d 5bbd f5dc aebc aac1 853c
00000230: d9b2 ed3c 3919 64bc da2f 213d ec8d f23b
00000240: 8ffa f03a d87c 53bc 3379 d3bd 463c a33c
00000250: b727 1abd 0d82 483d c88a 383d 136b a9bd
00000260: b250 f43c e300 6c3d 2217 77bc 0b10 0abd
00000270: cdcc 023d ab18 0c3d 53b0 ee3a 5c85 f1bd
00000280: 6e7c ed3c 47f7 50bb 4dca b43d 46b0 54bd
00000290: 191b c6bd ea8c b5bd 5309 a03d a2ba a93d
000002a0: 02cc 263d b960 7f3c 2678 29bc a00c 21bc
000002b0: f797 39bd e1b2 5a3d 1949 523d ad00 56bd
000002c0: 1e34 9a3d 38e3 76bd 9808 a4bd 1789 d4bc
000002d0: 41d8 49bd ac86 a8bd 18ac 4a3d b735 1fbd
000002e0: b5b3 afbc 0405 6abd 38af 0b3d 7c3a 79bd
000002f0: 4c53 d73c cdcc e6bd 98ad dabd 86bd 86ba
00000300: 3bc8 bbbd 74ef 5fbd ef07 ce3c 43a4 2c3d
00000310: 56b5 83bd a4c0 4fbd 1407 7cbd 1fa1 a6bc
00000320: c6b3 b9bd 71eb a6bc e975 783d 4212 feba
00000330: 2290 3cbd a4a7 4d3d 7069 78bd bf2c 57bd
00000340: e48e f5bc 34bb 78bd 684e 92bb 4d06 003e
00000350: fe6a dc3c 0e19 2fbd e2ee 00bd d76e a0bd
00000360: 2258 e9bb 03b6 c13c 98ed 17bc 3590 17bd
00000370: a902 85bd 5ba0 4bbd c608 19be fafe b7bd
00000380: 973a a6bd 70e0 3a3d 66db 61bd d7fb 693d
00000390: 2bcc 00be 844f 013b 85b4 b4bc 9add d03d
000003a0: 31c8 e93c ae51 fdbc cbde be3c 6d1f c63c
000003b0: 5c97 2dbd f0b6 f3bc 0c34 b0bd 898b c23a
000003c0: 5e1b 9d3a a017 cd3b f4c9 88bd 8f7c a7bc
000003d0: b6ed 06bd cebc 8f3c 5f57 013b 4dd5 a7bd
000003e0: 206a 9f3d a912 463d 5c06 0d3d fb32 603c
000003f0: d9d5 193d a28c 84bd f96f 583c 14a0 6dbd
0.043669395 -0.03032908 0.07623013 -0.042007584 -0.030265769 -0.0043652197 0.03248494 -0.123673715
0.032074735 0.01521911 -0.008933168 -0.03329344 -0.0037561564 0.020024417 -0.013103356 0.049818907
-0.059920724 0.038739398 -0.040854633 -0.016549673 0.055023067 0.0029272097 0.041764848 0.07309488
0.057117246 0.0025871675 0.084148206 -0.046359405 0.010205159 -0.019013036 -0.006964639 -0.09334944
-0.102929264 0.0090274485 -0.09835002 0.031511296 0.013733147 -0.019587707 -0.05901663 -0.06091578
-0.031529233 -0.02621054 -0.039431 -0.026696669 -0.10112267 -0.009136494 -0.04075068 -0.023923328
-0.06622087 -0.027517412 -0.05129771 0.0018111845 -0.018514365 -0.023136191 0.052802674 0.05437659
-0.10218721 0.0029180963 -0.040292263 -0.027032979 0.046506725 -0.1058438 -0.011614093 0.013061854
0.062290832 -0.0881379 -0.09921959 -0.013187593 0.01628912 0.05263516 0.016331356 -0.023445744
0.050214715 0.03380301 0.03203353 -0.00094441377 -0.050866466 -0.04398997 -0.07223887 0.08746414
0.024990927 -0.06110711 0.019427486 -0.02288348 -0.017248252 0.004742499 0.06640721 0.038203977
-0.01149963 -0.06343675 0.018324485 -0.003989899 -0.038749434 -0.004389893 -0.00765716 0.0046655135
-0.07391296 0.05764272 0.07325931 0.052020382 -0.0011900652 -0.027076164 0.008412641 0.015003779
-0.06184474 -0.022990257 0.06307812 0.08733458 -0.032383505 0.05126526 -0.0033587615 0.03918669
0.0025453614 0.00049482245 0.034428533 0.033264667 0.013358066 0.03005056 -0.052212577 -0.021902379
-0.023448508 -0.08022149 0.040287018 -0.0072974465 -0.046741396 0.01845699 0.05949773 0.03608208
-0.061398283 -0.05587043 0.05284934 0.004565267 -0.0378053 0.07197393 0.060164854 -0.021500807
-0.038800284 -0.053495254 -0.021345595 0.016327698 0.029015945 -0.013922029 0.039352275 0.0074021723
0.0018385219 -0.012908183 -0.10325851 0.019926202 -0.03763553 0.04895215 0.045054227 -0.08272376
0.029823635 0.057618033 -0.015081199 -0.033706706 0.031933594 0.034203213 0.0018210508 -0.117930144
0.028989997 -0.003188567 0.08827648 -0.05192592 -0.09673137 -0.08864768 0.078142785 0.082875505
0.0407219 0.015587025 -0.010343587 -0.00982967 -0.04531094 0.05339325 0.051339243 -0.05224674
0.07529472 -0.060275286 -0.08009452 -0.025944276 -0.0492785 -0.082288116 0.049480528 -0.038869586
-0.021447996 -0.05713369 0.03410265 -0.06084679 0.026284836 -0.112695314 -0.10677642 -0.0010279871
-0.0916905 -0.05467172 0.025150267 0.04214884 -0.064310715 -0.050720826 -0.061530188 -0.0203405
-0.09067492 -0.02037594 0.060659323 -0.0019384103 -0.046035893 0.050208703 -0.060647428 -0.052532908
-0.029975362 -0.060725406 -0.004464913 0.12502404 0.026906487 -0.042748503 -0.031477816 -0.07833641
-0.007121102 0.02364636 -0.009272955 -0.03700276 -0.06494648 -0.049713474 -0.14944753 -0.0898418
-0.08116644 0.045624197 -0.055140875 0.05712494 -0.12577884 0.0019731233 -0.022058735 0.10198517
0.028537842 -0.030922737 0.023299595 0.024184907 -0.042380676 -0.029750317 -0.08603677 0.001484261
0.0011986305 0.00625892 -0.066791445 -0.020445136 -0.032941543 0.017546084 0.0019735915 -0.08194981
0.077839136 0.04835764 0.034429893 0.01368403 0.037557457 -0.06472136 0.01321029 -0.05801399

fc3.weight f4 [4, 256]
00000000: 85dd 08bf 882c 693e ef74 7b3d a8ec aebe
00000010: e63b acbe 1138 933e 7cf7 9ebe cadd 253f
00000020: 567d 3a3f 1b80 aebe 20a8 563f 6700 823e
00000030: b21e 04bf 76a1 583e b4b8 d1bd 61fe af3e
00000040: 860a 5bbf 68bf babe 5a5f 5d3d 7620 d03e
00000050: 7f06 243e 20f0 023e 3ad2 54be 0313 a9bd
00000060: 3812 5dbe d8cb 183d 1e25 043f 2b9b 5a3e
00000070: 5629 a8be 1794 083e 5006 1c3f 0b62 393f
00000080: 14e9 db3d fe28 4c3d 6aed e73e c755 c4be
00000090: 7a08 04be 394b 64be 050a f1be 7ab0 4e3e
000000a0: c236 fc3d d4f4 49be 57d0 4a3e 5a9c 22be
000000b0: 0b0a 1bbf 8297 c43e e9d7 1f3e ad7e a53e
000000c0: b66d 763e e860 e13e 82ce 9fbe ac86 de3e
000000d0: 9862 0ebe a715 59bd 6026 f5be 3f21 ef3e
000000e0: 178d c73e 0cfd 45bd 6d43 f0bd 5ed6 963e
000000f0: f59e 80bd 8d4e 333f 94f4 a4be 25cc 6b3d
00000100: 260e 053e b0f9 6f3e fee6 2abf 1926 dbbd
00000110: 7ca3 a73e 8619 46be f4f6 89be 04ee 17bc
00000120: fad4 453e 0d69 ebbe 041c 8a3e bfba 81be
00000130: adce 83be c86f 0c3e ad4f 253e b401 06be
00000140: 2dd9 13be 768a babe fdf0 933e 9343 573f
00000150: c9de 9a3e 541a ffbe 2133 68bd c2d0 37bd
00000160: 90fc a2be 60ed 2abe c6fe d7be 7c4d a23e
00000170: 7800 2bbe 1a77 e63d 6f37 2b3a dd72 df3e
00000180: dd76 81be ce08 a0bd 1df7 9d3e ec17 2fbd
00000190: 4a5f 19be 46aa 4bbe c2c6 1c3f 6bdd b5ba
000001a0: c381 033e c925 cfbd d4b6 9abe 590b e6bd
000001b0: 5d38 db3e 9e53 0bbe c01e fbbd 05ca a93c
000001c0: 32b6 1ebe d18e 45be 5b20 d23e 7310 11bf
000001d0: b398 0f3f ff8f 63bd 3aa5 3a3e 9f41 3abd
000001e0: 6fe2 bdbe 166a c73e 4cc5 7cbe 214e e53b
000001f0: db22 93bd 4696 593e 0db6 e1bd 90a6 6f3e
00000200: ad4c 84be c8d1 1abe 7c79 103f 5109 fcbd
00000210: 0df7 74bd d270 00be 0cd6 21be ee3a bdbe
00000220: f50a 5cbd f441 98bd 7e6c f83d 2db2 4b3e
00000230: 49f3 c23e bbab d03e b091 0d3e d534 473e
00000240: a088 653e da15 23bd 2bc5 e13e c1e3 a8bd
00000250: bab9 9d3d af41 9d3e 5b64 223f 314c 1d3f
00000260: 942f eebd 3ca2 4cbe d8b0 03be 51b1 bb3e
00000270: 5eb5 873e 91ee 333f 7ba5 2cbe 24f5 d63d
00000280: 6dfb 6fbe 8af1 1c3e 2847 6abe da7f 1ebc
00000290: fbf4 7e3d ae1f f4bd a9d4 9b3e 8e73 18bf
000002a0: aefd 3fbe 859b 90be c957 313f 678a dabe
000002b0: 3c2a 82be 9d38 c93e bf37 2fbc 4d5a e9bd
000002c0: d4ef e9bb 93aa 1d3e 0d35 e7bd f0e7 e43e
000002d0: d54d 933e aaaf 15bf f940 5fbe a3c0 253e
000002e0: a629 8dbe e5fc cd3e f25f 97be 64c5 f43e
000002f0: 4570 093e 4392 253f f1e6 31bf 8577 a73e
00000300: d462 6a3f 6a4b 803e ddf9 b3be 2b5d debd
00000310: 14cd 04be 5d72 1b3e c27a 37bf ea68 373f
00000320: 6a45 fbbe f1c0 efbe fa01 e1bd 4ed4 0dbf
00000330: b7c3 123f 3ab5 95bd 237e 91bf c87b 27be
00000340: 0fae 3e3d ac9e 87be 6160 ae3e a2a0 d1be
00000350: 1c6e ccbe c8df 0e3f 0f61 b23c f212 563e
00000360: a7b9 54bd 3112 94bc 6810 b5bd 341d 00be
00000370: a852 3dbe 5fae 613e fef6 dfbe 3dfd 093f
00000380: ee28 00be d41b 463e 75a9 0f3e e8d9 583e
00000390: 3994 c93e cf60 ce3d 6e4a b63e bc56 cdbe
000003a0: ac7a 003f 83cc 62be a65e 7fbd d33f d3be
000003b0: b2f8 383e 53ed 85bb 1a43 753f 0b84 95be
000003c0: 66d2 a23d 2eaf 1d3e f27d 3bbe 747e b6be
000003d0: 9b69 6cbd e79d 88bd 2b46 c5be 67c8 dd3e
000003e0: 29c8 0bbe 1a21 6abd 7c16 073f d155 4f3e
000003f0: 7318 df3d 9605 963e 0dd3 45bf 5742 59bf
-0.5346301 0.22770894 0.061390813 -0.3416493 -0.3363945 0.28753713 -0.3104819 0.6479155
0.728475 -0.34082112 0.8385029 0.25390932 -0.5160934 0.21155342 -0.102403075 0.34373763
-0.8556293 -0.36474156 0.054046012 0.40649766 0.16018103 0.12786913 -0.2078332 -0.08255579
-0.21588981 0.037303776 0.51619136 0.21348254 -0.32844037 0.13337742 0.6094713 0.72415227
0.107378155 0.04984378 0.4529832 -0.38346693 -0.12893859 -0.2229432 -0.47077957 0.20184508
0.12315132 -0.19722301 0.19806038 -0.15879956 -0.605622 0.3839684 0.15609707 0.32323208
0.24065289 0.44019246 -0.3121224 0.4346212 -0.13904798 -0.052999165 -0.4788084 0.46705052
0.3897483 -0.048337027 -0.117316104 0.29460424 -0.06280319 0.70041734 -0.32217848 0.057567734
0.12993678 0.23435092 -0.66758716 -0.10700626 0.32741916 -0.19345674 -0.26946223 -0.009273056
0.19319525 -0.45978585 0.269745 -0.25337788 -0.2574362 0.13714516 0.16143675 -0.13086587
-0.14438315 -0.36433762 0.28894797 0.84087485 0.30248097 -0.49824774 -0.056689385 -0.04487682
-0.31833315 -0.16692114 -0.42186564 0.3169974 -0.16699398 0.112531856 0.00065313926 0.4364232
-0.25285998 -0.07814179 0.30852595 -0.042747423 -0.14977756 -0.19889173 0.6124078 -0.0013875192
0.12842469 -0.10114629 -0.30217612 -0.11232633 0.4281644 -0.13606116 -0.122617245 0.020726213
-0.1549919 -0.19292761 0.4104031 -0.56665725 0.56092376 -0.055557247 0.18227091 -0.045472737
-0.37086818 0.38948125 -0.24684638 0.006997839 -0.071843825 0.21248731 -0.110210516 0.23403382
-0.2583975 -0.15119088 0.5643537 -0.123064645 -0.05980592 -0.12543038 -0.15804309 -0.36959022
-0.053721387 -0.074344546 0.12130068 0.19892187 0.38076237 0.4075602 0.13825107 0.19453748
0.224154 -0.03981576 0.4409574 -0.082465656 0.0770144 0.30714175 0.6343438 0.61444384
-0.116301686 -0.19983763 -0.1286043 0.3665872 0.2650556 0.702859 -0.16860001 0.104959756
-0.23435755 0.15326515 -0.22878706 -0.009674037 0.06224535 -0.11920105 0.30435684 -0.5955132
-0.18749115 -0.28243652 0.69274575 -0.42683718 -0.25422847 0.39301005 -0.010694443 -0.11394177
-0.0071391854 0.153971 -0.112894155 0.44708204 0.2877032 -0.5847117 -0.21802129 0.16186766
-0.27570838 0.40232006 -0.29565388 0.47806847 0.13421734 0.646763 -0.69493014 0.32708374
0.9155705 0.25057536 -0.35151568 -0.10857614 -0.12968856 0.15180345 -0.7167169 0.7164446
-0.49076396 -0.4682689 -0.10986705 -0.55402076 0.5732989 -0.07309957 -1.1366619 -0.16355813
0.046552714 -0.26488245 0.34057906 -0.40942866 -0.39927757 0.55810213 0.021774797 0.20905665
-0.051934864 -0.01807508 -0.0884102 -0.1251114 -0.18488562 0.22039174 -0.43743128 0.53902036
-0.12515613 0.19346553 0.14029486 0.21176875 0.39370897 0.100770585 0.3560366 -0.40105236
0.5018718 -0.22148328 -0.062346123 -0.41259632 0.1806362 -0.004087129 0.95805514 -0.29202303
0.079502866 0.15398857 -0.18309763 -0.3564335 -0.0577179 -0.066707425 -0.38530096 0.43316957
-0.13650574 -0.057160474 0.52768683 0.2024758 0.10893335 0.29301137 -0.7727516 -0.8486685

fc3.bias f4 [4]
00000000: af85 d93c 573b 44bd 7d24 dbbb 98e2 883d
0.026553003 -0.047908153 -0.0066876994 0.06683844
