checkpoint_critic.pth (torch_old, 87028 bytes, 5 tensors)

fc1.weight f4 [128, 33]
000000 bc 0c 43 be 42 c4 4d 3f e2 69 43 3e 40 af e7 3d
       -0.19047827 0.8037759 0.1908336 0.11312723
000010 ca aa 27 be 62 e1 cd 3d 53 22 2b be 2a 58 a5 3b
       -0.16373745 0.10052754 -0.16712312 0.0050459104
000020 a3 51 82 be a5 70 29 3e c6 93 cc bd 0a 35 3d 3d
       -0.2545291 0.16546877 -0.09989123 0.04619316
000030 3a 9a 83 3c 18 e9 ce 3d e7 10 43 bf 49 39 7a be
       0.016064752 0.10103053 -0.76197666 -0.24435915
000040 d6 64 da bd f7 45 42 be d1 37 1c be 8c db 5b 3d
       -0.10663764 -0.18972002 -0.15255667 0.053676173
000050 e0 46 a1 bc 3b 51 04 bd 85 9e af 3c 71 45 3d bc
       -0.019687116 -0.03230403 0.021437893 -0.011552201
000060 d3 14 31 be 57 c2 24 bd 94 29 45 bd 3b 02 ae 3e
       -0.172931 -0.0402244 -0.048135355 0.33986077
000070 12 51 fd 3d e8 26 1e bb dd aa d5 be cb 37 e9 bb
       0.123689786 -0.0024132077 -0.4173192 -0.0071172467
000080 a1 1f 31 3e e1 d8 3f bf cd 5d 23 be 88 9c 50 3e
       0.17297222 -0.74940306 -0.15953751 0.20372212
000090 30 54 c1 bd ad c0 d2 bd 5d 4b 61 be 75 c2 5d bd
       -0.094398856 -0.10290656 -0.22001405 -0.054140527
0000a0 57 1f 83 bc 2b fb 02 3d 39 40 d2 bd ad d0 1e bd
       -0.016006155 0.031977814 -0.10266156 -0.038773227
0000b0 0b 3f 94 bd 46 43 b1 bc ea 8f 44 3f 7d ce 20 3e
       -0.07238587 -0.021638524 0.76782095 0.15703769
0000c0 32 4e 83 bc 14 67 53 3d 03 4f a9 bd c3 0c 52 3d
       -0.016028497 0.051611975 -0.082670234 0.0512817
0000d0 6f 3f 11 3e 07 ef 86 bd c9 f4 5a bb 7c 1f ba 3d
       0.14184354 -0.065885596 -0.0033410063 0.090880364
0000e0 82 eb 92 3d 66 f6 98 3d 6a 4c d8 bd 15 cc 88 be
       0.07173826 0.07468872 -0.1056145 -0.26718202
0000f0 f5 fb a7 3e de a8 00 be df 18 c0 3d 3f 2b 93 be
       0.32809415 -0.12564418 0.09379744 -0.28743932
000100 8a 6c 94 3d f6 0e 0f 3e cb 4a 5e 3c ee 4e 32 bc
       0.07247265 0.13970551 0.013567637 -0.010883076
000110 dd b4 2b be 33 88 9f bd 25 c9 27 be ca 77 4a 3e
       -0.16768213 -0.0778965 -0.16385324 0.19772258
000120 0f 5f 3f 3e 1c 37 09 bc 1e b0 bf bd d9 5b ba bd
       0.18688606 -0.0083749555 -0.093597636 -0.0909955
000130 0a 91 7e 3c 28 e9 6a 3a 07 c7 68 bc 7b b3 17 3d
       0.01553751 0.00089611346 -0.014207608 0.0370364
000140 fd 4d 93 3c 59 52 23 3d 66 46 b7 bd d6 84 2c 3d
       0.017981524 0.039873455 -0.08948974 0.04211887
000150 5c 32 d7 3d 39 6d cd ba 0e 6e 19 bc 07 08 00 ba
       0.10507652 -0.001567281 -0.009364618 -0.00048840087
000160 92 38 44 3d 6c 8b e3 3c 11 18 1f 3c 76 48 13 bd
       0.047905512 0.027776442 0.009710328 -0.035957776
000170 ea d8 f0 3d 71 18 eb 3d 83 d4 2f bd 51 0b 9d bd
       0.11760123 0.11479271 -0.042927276 -0.07668174
000180 ba 5b 81 be 6b 3a 3e bd b4 bc 4f c0 68 c7 41 be
       -0.25265294 -0.04644243 -3.2458925 -0.18923724
000190 26 61 c4 be 04 e0 6b be d4 61 0c 3e 53 41 84 be
       -0.38355368 -0.23034674 0.13709193 -0.25831088
0001a0 2b 49 0e 3e 92 d9 8f be 7c d6 f6 bb df 29 24 3e
       0.13895099 -0.2809568 -0.0075328927 0.16031598
0001b0 4b f2 4e be fb 58 30 bd e5 e5 02 be 59 6d 31 be
       -0.20209615 -0.04305361 -0.1278301 -0.17326869
0001c0 4d 5d 05 be c2 26 c0 3e f5 44 1f be 7b 89 25 3e
       -0.13023873 0.3752957 -0.15553649 0.16165726
0001d0 9b 49 6e 3e e1 3e e9 3c 10 2b 4b be 2e 53 53 be
       0.23270266 0.028472366 -0.19840646 -0.206372
0001e0 d6 2e 6e bd 00 70 e6 3c c1 9e 83 bd 3c 3c ef 3c
       -0.058150135 0.028129578 -0.06426764 0.029203527
0001f0 5f 33 7a 3c 9e 8c 62 3e 1c 1a 22 3e f6 8a 2b 3e
       0.015271037 0.22123954 0.15830272 0.16752228
000200 37 37 7a be 48 26 30 be b7 b6 64 be 3e 1e 9c bf
       -0.24435125 -0.17202103 -0.22335325 -1.2196729
000210 ad 3e 56 be cd c7 35 3e 8a 54 78 3e 63 51 91 3d
       -0.20922346 0.17751999 0.24250999 0.070956014
000220 64 33 96 3e 6d bf 95 3e 04 e1 a8 be 23 20 03 3e
       0.29336083 0.2924761 -0.32984173 0.12805228
000230 12 68 c9 bd a4 ad 0c 3d fa e9 a4 3c 93 f1 24 bd
       -0.09834303 0.034345284 0.0201311 -0.040269446
000240 e1 72 98 3e 71 84 dd 3d f8 4b 92 be a6 f6 52 be
       0.29775146 0.10816277 -0.28573585 -0.20601901
000250 bd 95 02 bf 68 72 62 3d ed a6 2a be 7e 34 a3 3e
       -0.5100973 0.055284888 -0.1666524 0.31875986
000260 b2 0f a7 bd 9f 73 12 3c 0b fa 8f bd 40 02 67 3e
       -0.081572905 0.008938699 -0.07030114 0.22559452
000270 72 f1 82 be dc 56 48 3e c2 09 1c be 90 d3 90 3f
       -0.25574833 0.19564384 -0.15238097 1.1314564
000280 28 c6 a8 3c e2 30 47 3d ca e5 7e bf 7a 09 ff bd
       0.0206023 0.048630603 -0.9956938 -0.124529794
000290 2b 12 45 be 90 07 d8 3d a9 84 98 ba 6f 0c fb 3d
       -0.19245212 0.105483174 -0.0011636215 0.12258231
0002a0 17 5a fa bd fb 05 77 3e 75 a4 4b bd db f4 33 3e
       -0.122242145 0.24123375 -0.049717385 0.17573874
0002b0 e8 f7 a2 bc 2d 63 41 be 18 45 63 3e f7 b9 9d bd
       -0.019893602 -0.18885489 0.22194326 -0.077014856
0002c0 a5 44 69 3d d4 a0 a8 bc 3c e9 6b be bf a9 c3 3e
       0.05695023 -0.020584501 -0.2303819 0.38215443
0002d0 60 b2 ce be e6 25 0b 3e 7c c1 e3 3c 45 83 74 bd
       -0.40370464 0.13588676 0.027802221 -0.0596955
0002e0 21 5c 13 be 50 a4 3f bc cb c4 c5 bd 67 4a 83 3d
       -0.14390613 -0.01169689 -0.09656676 0.064106755
0002f0 d3 7e 03 be 3e 2b a9 3d dd ef 26 be b8 d3 28 3e
       -0.12841348 0.08260201 -0.16302438 0.16487014
000300 2e 55 67 3e f6 ae 35 3e 4a c3 af 3d b4 65 42 be
       0.22591087 0.17742524 0.0858217 -0.18984109
000310 d0 39 b5 bd 5a 90 dd bf 75 10 28 3d 25 0f 6d be
       -0.088489175 -1.7309678 0.04103132 -0.23150308
000320 9e d5 ea bd 66 ca 47 3d d1 bc 9c bd 29 9b 12 3d
       -0.114665255 0.048777007 -0.07653201 0.035792504
000330 6c af e6 bc de 3e 1a 3d ce 1b 36 3c 26 ce d7 3c
       -0.02815982 0.03765761 0.011115028 0.026343416
000340 36 fd 67 3c 95 d9 bb bc 43 da c2 bb 44 f5 90 ba
       0.014159491 -0.0229309 -0.005946429 -0.0011059423
000350 5f fb c4 3d 81 4a c2 3d 92 e9 90 3d 26 d5 1b 3c
       0.09618258 0.09486867 0.070758 0.009511268
000360 69 73 86 bd ea eb 9b 3c c2 46 43 bc 98 69 ae 3c
       -0.065649815 0.019033391 -0.011918725 0.021290585
000370 58 e7 0f bd 4f 29 d0 3b 22 cd ab 3b 29 08 ad 3c
       -0.035132736 0.0063525806 0.0052429596 0.021122055
000380 72 10 52 bb e0 b5 52 bf 68 8e 72 bc 68 f2 17 3e
       -0.003205326 -0.8230877 -0.01480446 0.14838564
000390 c2 e7 60 3f 9c a5 16 bd 59 38 2f be b9 13 93 3e
       0.87853634 -0.03677903 -0.17111339 0.28725985
0003a0 f8 d3 61 bf 18 a9 a2 3d 85 71 ad bb d3 31 be bd
       -0.88214064 0.07942408 -0.0052930736 -0.09286847
0003b0 84 02 51 3d 10 08 d4 3c 14 66 4a 3d b5 74 6c bd
       0.05102779 0.02588275 0.049413756 -0.057728488
0003c0 11 b1 ed bd 33 53 82 3d 6b 93 d1 3b f2 65 5e bc
       -0.11606038 0.06363525 0.0063957474 -0.01357411
0003d0 af 52 3b be 75 8b 79 3f 5e 70 72 39 ec 32 24 3e
       -0.1829326 0.9747842 0.00023120778 0.1603505
0003e0 28 61 36 bd 7b 90 31 bc 9c f7 ee 3d 7f 2f d5 bc
       -0.04452625 -0.0108376695 0.116683215 -0.026023624
0003f0 81 8b 98 bd 0a 3d 93 bd 2d 6d c9 3c b9 1d 11 3e
       -0.07448483 -0.07189377 0.024588192 0.14171495

fc1.bias f4 [128]
000000 21 fa c8 be 93 68 c1 be d6 7f 8b bd ad 57 59 be
       -0.39253333 -0.37775096 -0.06811492 -0.21224852
000010 23 e8 8f bf 26 62 cc be 8a 14 6d 3f 59 c0 8a be
       -1.1242718 -0.3991863 0.92609465 -0.27099875
000020 cc 14 b1 be 91 aa 8a be 96 61 d5 be f7 5f 2b be
       -0.3458618 -0.27083257 -0.41676015 -0.16735826
000030 63 00 41 bf 8a 7f 93 be e4 4b 94 be e4 57 2d bf
       -0.75391215 -0.28808242 -0.2896415 -0.67712235
000040 cc 9b c7 3e e7 22 95 be 69 2d da be c3 b6 ff bb
       0.3898605 -0.2912819 -0.4261277 -0.0078037693
000050 79 2e 77 be e7 62 8f be 65 54 48 bf 7a 5c 2e bf
       -0.24138822 -0.28005144 -0.78253776 -0.6810986
000060 ec ac f7 bd 51 f5 aa be 0a e0 64 bf 64 cc 78 bf
       -0.12093529 -0.33390287 -0.89404356 -0.97186875
000070 3b 6d 10 bf 26 d1 3f bf 3f 26 3a bf 8a 25 1a bf
       -0.5641667 -0.7492851 -0.7271461 -0.6021353
000080 74 84 ec be 1a 9c a4 be d4 60 9c be 4d d9 cb be
       -0.46194804 -0.32150346 -0.30542624 -0.39814225
000090 96 eb 31 bf 95 ac 2e bf 71 bc 87 bc 6a 53 ee bd
       -0.695001 -0.6823209 -0.016569348 -0.11637004
0000a0 f4 dc c4 3e 39 2b 39 bf b6 c2 a6 bf 87 44 52 bf
       0.38449824 -0.7233158 -1.3028171 -0.82135814
0000b0 b8 41 87 be 87 d2 2c 3d 8a 3f 3a bf b1 14 65 bf
       -0.26417327 0.042192962 -0.727532 -0.894847
0000c0 9a a3 28 bf 5d 96 36 bf 78 7e 83 bf 52 7f 41 bf
       -0.65874636 -0.71323186 -1.027297 -0.755849
0000d0 d3 80 02 bf 42 20 9f bf dc f8 93 bf 58 1d 04 bf
       -0.5097782 -1.2431719 -1.1560321 -0.51607275
0000e0 f7 a3 7a be b4 71 3c be de 0c 16 bf 70 32 68 3e
       -0.2447661 -0.1840275 -0.58613384 0.2267549
0000f0 d1 a6 ef be ea 6a 1d be db b3 43 be 78 3c 83 be
       -0.46806958 -0.15372816 -0.19111578 -0.25632071
000100 07 d3 7f 3d 5f 79 15 bf 2e aa 3d bf d9 d0 b3 be
       0.06245711 -0.5838832 -0.740878 -0.35120276
000110 00 c0 09 3f 03 b1 85 bf 32 7d 00 bf 3b 8e 7a bf
       0.53808594 -1.0444645 -0.5019103 -0.97873276
000120 bc 5c 80 be e5 be 54 bf dc a1 a2 3e b4 48 41 bf
       -0.2507075 -0.8310378 0.31764114 -0.7550156
000130 e1 c4 e6 be 08 8d 95 bf 45 d7 35 bf b2 a9 9f be
       -0.45072082 -1.1683664 -0.710316 -0.31184155
000140 54 b0 f5 be 11 39 db 3e be 4f 01 bf b0 05 86 bf
       -0.4798609 0.42816976 -0.505123 -1.0470486
000150 5e fb ee be 36 23 12 bf 72 e1 98 3e 70 1d 9c 3e
       -0.46676153 -0.5708498 0.298595 0.3049121
000160 88 ca 5f be 5f c9 95 be d7 56 ff be ae 0b e1 3e
       -0.21854603 -0.29255196 -0.4987094 0.43954223
000170 97 8d 5c bf 1c 28 17 bf 79 35 c7 be 9e 54 a8 be
       -0.8615355 -0.5904558 -0.38907984 -0.32877058
000180 a4 b4 30 bf 01 8d 07 bf 36 6f 2d bf 8c a4 9e be
       -0.69025636 -0.5294953 -0.6774782 -0.30984914
000190 48 ed e1 be e9 db d8 3e b3 8f 0f bf 2c 14 15 bf
       -0.44126344 0.42355278 -0.5607864 -0.58233905
0001a0 ea 3d 45 bf 15 0e d5 be 20 bb 50 bf c3 a4 39 bf
       -0.770476 -0.41612306 -0.8153553 -0.7251703
0001b0 6b c1 55 bf d6 3d 11 3e 93 78 ee be 93 59 b6 3e
       -0.8349826 0.14183745 -0.46576366 0.35615215
0001c0 f7 ce bc be 0f 9d 41 bd af 58 85 bf bc 85 62 bd
       -0.36876652 -0.047268923 -1.0417689 -0.05530332
0001d0 a9 15 3f be 41 c8 55 be b5 6d 09 be b2 35 5e bf
       -0.18660606 -0.20877172 -0.13420756 -0.8680068
0001e0 1a 7e 1a be a3 19 60 be e1 78 4c bf 85 4f 9e bd
       -0.15087166 -0.2188478 -0.79871947 -0.07730011
0001f0 64 35 a5 be d6 16 11 bd 3e e0 f3 be cc f1 ec be
       -0.32267296 -0.03542217 -0.4763202 -0.46278226

fc2.weight f4 [128, 132]
000000 94 e2 84 be 9b ae 01 3f 01 a3 75 bd 5a 7d 2c 3d
       -0.25954115 0.5065705 -0.059969906 0.042111732
000010 69 79 28 be 98 4e 0f 3d f4 66 5d 3e bc 1e 14 be
       -0.16452564 0.034987062 0.21621305 -0.14464849
000020 f9 b8 66 be 66 8e 03 bf 55 85 a0 bd da a7 9c 3e
       -0.22531499 -0.5138916 -0.07837931 0.3059681
000030 0b fd 8d 3d 2b 1f a5 bf b8 71 3a 3e 7e b4 94 3e
       0.0693303 -1.2900137 0.18207443 0.29043955
000040 97 94 85 3d fc 9d f7 be 75 e4 2e 3e fc a9 f4 bd
       0.06522482 -0.4836272 0.17079337 -0.119464844
000050 ad 46 e2 bb 2f 06 a3 3d 41 15 42 3e bb 42 ac 3e
       -0.006905398 0.07960164 0.1895342 0.3364466
000060 df 5f 78 3d 81 6e 23 3e e6 0b 03 bf 78 29 13 3e
       0.060638305 0.15960123 -0.5119003 0.14371288
000070 27 34 08 3f e5 55 26 3f 8f ce c6 bf 0c 10 14 3d
       0.5320458 0.64974815 -1.5531787 0.036148116
000080 03 57 09 3e cf 67 c1 be c4 eb d6 bf 29 89 1e bd
       0.13412099 -0.37774512 -1.67907 -0.038705025
000090 38 b7 b0 be 39 37 c9 be 88 d7 c1 bf 07 61 f7 bd
       -0.34514785 -0.39299944 -1.51439 -0.12079053
0000a0 27 aa 80 b9 56 f7 43 bf 36 cb 65 bf 1f 33 81 3e
       -0.00024540836 -0.7654928 -0.897632 0.25234315
0000b0 7f fe 25 3e ef f0 07 3e d7 93 01 bf 13 a2 09 be
       0.16210364 0.13275503 -0.5061621 -0.13440733
0000c0 0c 78 19 be dd 4f bd bd 44 0b 6f bf ec 81 0f be
       -0.149872 -0.09243748 -0.93376565 -0.14014405
0000d0 23 dd b2 3e 18 c1 39 bd bc 20 62 be 1c e7 e2 bd
       0.3493434 -0.045350164 -0.220828 -0.11079237
0000e0 c5 2d 58 bf f5 5d 5c 3d 50 bb d5 3e 1d f9 72 3d
       -0.8444484 0.053800542 0.4174447 0.059319604
0000f0 4f 18 1c 3e c8 5a 34 bd 9a 5c 2b 3e d2 9a 4d be
       0.15243648 -0.04403189 0.16734543 -0.2007859
000100 ea d4 b4 3d fb 61 18 bf a7 43 f0 be ab 57 36 bc
       0.08829673 -0.59524506 -0.46926615 -0.0111293
000110 cb 68 53 be a0 8f 9f be ab 5a 16 3e 43 0f ad be
       -0.20645444 -0.31164265 0.14683025 -0.33800706
000120 8a 21 e2 3e d0 c2 37 3f 9e b5 13 3e 39 ec 9c 3e
       0.44166213 0.71781635 0.1442475 0.30648974
000130 e2 fc a4 be 67 14 36 bf 3b c5 b3 3e c2 c0 f5 be
       -0.32224184 -0.7112488 0.35111412 -0.47998625
000140 13 8a 99 bf 28 dc a3 3d f2 c1 28 bf db 37 77 be
       -1.1995262 0.08000976 -0.6592094 -0.24142401
000150 63 b9 a4 3e dd 71 0c 3f 19 49 70 bd 5c 3d 00 bf
       0.3217269 0.5486124 -0.05866346 -0.50093627
000160 1a 8b 41 be 4a 0d 9b be 1d 26 67 bd fd e5 93 bd
       -0.1890072 -0.30283576 -0.056432832 -0.07221601
000170 66 77 0b 3e 4c 69 8e be 7b 6f c2 3e 88 bd a5 be
       0.13619766 -0.2781471 0.37975678 -0.32371163
000180 26 52 49 3d aa ee be 3e 7a 17 09 3e 0c 05 70 bd
       0.04915061 0.3729146 0.13387862 -0.058598563
000190 76 a5 c1 3d 6e b2 e7 bf ad 13 bf bd f0 12 b4 be
       0.09455387 -1.8101327 -0.09329925 -0.35170698
0001a0 04 98 be be 04 3c b5 3e 27 15 4f 3e 2e 3e c2 be
       -0.37225354 0.3539735 0.20222913 -0.37938064
0001b0 59 72 a8 3c a9 3e 81 bd d3 4c 5e 3d 40 8b aa be
       0.020562338 -0.063107796 0.054272484 -0.33309364
0001c0 09 bd c6 3e 04 27 ec bd a0 3d 38 be 92 23 4a 3e
       0.38816097 -0.11530879 -0.17992258 0.19740131
0001d0 3a 46 36 be a5 58 4f 3f c1 6b 0c 3d cc e1 ba 3d
       -0.17800227 0.80994636 0.03428245 0.091250986
0001e0 1a d8 11 bf a5 1c 67 bf b8 38 32 bf ca d1 da 3e
       -0.5697037 -0.90278083 -0.69617796 0.4273818
0001f0 7b e9 92 be d4 0d 07 be 23 78 49 3e b6 b5 fe bd
       -0.28693756 -0.13188869 0.19674735 -0.12437002
000200 a2 2c 29 3d 5c dd ab bd 58 0e c3 3c c1 bb 98 3c
       0.04130233 -0.0839183 0.02381055 0.018644216
000210 40 1f 9d 3e 9a 83 b5 bd 2b c1 ed 3d 49 59 1e bc
       0.30687904 -0.08862992 0.116091095 -0.009664842
000220 0b 61 0b 3e 8c 21 7c be e5 8f 5f be 93 06 d8 3e
       0.13611238 -0.24622172 -0.21832235 0.42192516
000230 4d 2c 69 3d 66 17 93 be 7b e7 7e be 1f ce 89 be
       0.056927014 -0.2872879 -0.2489299 -0.2691507
000240 65 c0 9e bd f1 8a a5 be cb 5b 0d be 79 b6 7d bd
       -0.0775154 -0.32332566 -0.13804547 -0.061941598
000250 27 b1 35 bf 0f dd 5f bd 78 c0 2d 3e 92 4f 31 3e
       -0.7097344 -0.054654177 0.16967952 0.1731551
000260 d3 46 63 3d 64 77 07 be 50 ba da be ef a3 0c bf
       0.055487465 -0.13229138 -0.4272027 -0.5493764
000270 9e a5 97 3d da b6 58 bd dc ba 38 be 5e 78 75 be
       0.07404636 -0.052908756 -0.18040031 -0.23971698
000280 ca 94 c7 3d 2f bb 98 3e e4 57 a7 be 81 8d 92 bc
       0.09745176 0.2983031 -0.32684243 -0.01788974
000290 06 6e a3 be 04 d4 78 3d 79 ce e3 bc 8d 67 0b bd
       -0.3191988 0.06074907 -0.027808415 -0.0340343
0002a0 9b ab 9f 3d 36 a9 3e be 7c 21 78 be 23 6d af be
       0.07796403 -0.18619236 -0.24231523 -0.34262952
0002b0 a0 65 98 3d 43 0b 16 bd 3e 69 b9 3d 7f 81 75 3e
       0.074412584 -0.036631834 0.090532765 0.2397518
0002c0 45 05 3a 3e b3 d5 98 be 08 2c 7d be 5e 72 e0 bd
       0.18166073 -0.2985054 -0.24723828 -0.10959314
0002d0 90 35 96 3d 09 c2 69 be 12 24 80 bc 05 c2 fa 3c
       0.07334435 -0.22827925 -0.0156422 0.030610094
0002e0 84 ea 4a 3e 48 c0 2d 3e 58 0b 00 3e a5 01 dd be
       0.19816023 0.1696788 0.12504327 -0.43165317
0002f0 79 53 1b be 2c 82 93 3e 3e 88 c4 be 7d 4e 3f be
       -0.15168561 0.2881025 -0.38385195 -0.18682285
000300 76 13 c7 3e d6 c7 e8 be d0 43 44 bd ac 79 95 bd
       0.38882035 -0.45464963 -0.047916234 -0.07298598
000310 b7 08 02 3e f8 8b 8e 3e 99 1a be 3e d2 7b 1c bf
       0.12698637 0.27841163 0.37129667 -0.61126435
000320 f8 b2 88 be b7 a5 bf bd d5 3e 83 bd 13 e6 55 be
       -0.26699042 -0.093577795 -0.06408469 -0.20888548
000330 35 5d 5b 3d de 94 7e be 5a c1 a3 bd 42 31 f5 bd
       0.053555686 -0.24861476 -0.07995863 -0.11972286
000340 2b b4 6e 3e 0d 56 e6 3d 58 68 3a bf 7b ef 1f be
       0.23310916 0.11246882 -0.72815466 -0.15618698
000350 a3 f0 07 bf 5a ef bb be 0f e0 79 bd e9 41 1b be
       -0.5310156 -0.36706048 -0.061004695 -0.15161861
000360 d1 be 67 3e a5 4a 44 be 29 b8 c2 3c 4a 3a 83 be
       0.22631384 -0.191691 0.023769455 -0.2563041
000370 4d 68 ed bd 22 9e dc be 55 32 ca be b2 04 14 bf
       -0.115921594 -0.43089396 -0.39491525 -0.57819664
000380 e3 e2 c6 be 48 62 3d bf 4f f6 b6 3d a4 4d 37 bd
       -0.38844976 -0.7397809 0.089336984 -0.04475178
000390 f2 58 c5 be cf 31 48 be d2 6e 9a 3e 18 c2 04 bf
       -0.38544422 -0.1955025 0.30162674 -0.51858664
0003a0 fe 29 18 bc e9 d3 b2 bd ba be 00 bd 40 35 20 3d
       -0.0092873555 -0.08731825 -0.03143189 0.039113283
0003b0 60 cb dc be d9 34 65 3e ac 73 b0 be 6a da bc bd
       -0.43123913 0.22383441 -0.3446325 -0.09221347
0003c0 10 97 84 bd e3 e7 ac 3d 38 3b c2 be 1a 86 e2 be
       -0.064741254 0.084426664 -0.37935805 -0.44242936
0003d0 cb 01 ad 3d 47 06 2f be 5f 2e a2 be 85 c7 f1 be
       0.084476076 -0.17092238 -0.31676003 -0.47222534
0003e0 54 57 bc 3e ba 6e d2 be c5 59 81 3c a1 36 ce 3e
       0.36785376 -0.41100103 0.015789876 0.40276054
0003f0 06 f0 db be 41 62 a5 bd 3d 1f b2 be ff bb ea bd
       -0.4295656 -0.08075381 -0.34789458 -0.11461639

fc2.bias f4 [128]
000000 8b ae 11 3f 11 c7 0f be fb 51 06 3f c1 98 42 bd
       0.56906956 -0.14040782 0.5246884 -0.04750896
000010 d1 b9 41 3f 3a a0 b7 bd d6 c3 25 3f 5b ae 2f bf
       0.7567416 -0.08966108 0.64751947 -0.6862542
000020 3e 6e 57 bf d7 8c 0d be f4 fb 3c 3f 49 95 dc be
       -0.8415259 -0.13823257 0.7382195 -0.43082646
000030 b0 75 86 be de a9 dc be d8 8d 4c 3f 4c 93 ee 3e
       -0.26261663 -0.43098348 0.79903936 0.46596754
000040 32 7b 14 3f 96 ca 28 3e 74 b6 a2 be f0 23 08 3f
       0.5800048 0.1648353 -0.31779826 0.53179836
000050 a0 91 43 bf ee 5a 51 be 98 a6 17 bf eb 50 1e 3f
       -0.7639408 -0.20444843 -0.59238577 0.6184222
000060 2b 8b 20 bf 2c 41 19 3f 77 e5 18 3f 9b c3 df bd
       -0.62712353 0.5986507 0.59725136 -0.10925981
000070 5f fb f8 3e 9d 1f 1e bf 35 96 9f bd 8a 0c 15 bf
       0.4862928 -0.6176699 -0.077923216 -0.5822226
000080 48 cd 4a bf bb 8e 5d bd 18 aa 1e 3f c6 bd 41 be
       -0.79219484 -0.054091197 0.6197829 -0.18920049
000090 04 b6 2b 3f f4 35 0c 3f c7 c7 1f bf d4 f7 26 3f
       0.6707461 0.54769826 -0.6241421 0.65221906
0000a0 58 1d 0e 3f 3f 0e 0e 3f 79 74 76 3f b7 8b 1f bf
       0.55513525 0.5549049 0.96271473 -0.6232256
0000b0 78 96 1f bf d4 52 d7 bd 76 41 23 be 7d ef 3e 3f
       -0.6233897 -0.10513845 -0.1594294 0.7458418
0000c0 cf af d9 3e 34 3c f4 3e 9d ce 13 bf 22 45 14 3f
       0.42516944 0.4770218 -0.5773714 0.5791799
0000d0 fe f0 2f 3f 88 0d 90 be dd 53 bb be 50 6e 12 be
       0.687271 -0.28135324 -0.3658742 -0.14299893
0000e0 a5 96 13 3f d2 fd ec 3e 93 e9 92 bd 6f 8d 74 be
       0.5765174 0.462874 -0.07173457 -0.23882078
0000f0 78 f7 e1 be 42 ef 4d 3f c1 d4 29 3f 00 eb 1e bf
       -0.44134116 0.80443203 0.6634026 -0.6207733
000100 67 8f 12 3f 0e 3e 0f 3f 0a 68 ef be c9 1f 42 be
       0.57250065 0.5595406 -0.46759063 -0.18957438
000110 a0 a9 05 3f ad 13 f6 3e 8d 9c 11 bf a9 29 22 3e
       0.5221195 0.48061886 -0.568795 0.15836205
000120 e8 3c 1f 3f e2 9e 44 3f bc cc 26 bf 11 d9 e1 3e
       0.6220231 0.76804936 -0.6515615 0.4411092
000130 79 3f 45 3f 85 9e 2a bf f7 e2 df be 61 a3 1d bf
       0.77049977 -0.6664813 -0.43727848 -0.6157742
000140 00 4f f5 3e 0e 86 0b bf c8 8f f2 be d8 d3 10 3f
       0.47911835 -0.54501426 -0.4737532 0.5657325
000150 c5 56 50 3f 32 37 04 bf 62 06 ac 3d 30 4f 21 3f
       0.813824 -0.5164672 0.08399655 0.63011456
000160 35 e6 fd be 4b 0f 42 bf 86 5f fb be 43 a2 94 be
       -0.49589697 -0.75804585 -0.49096316 -0.29030046
000170 34 60 4f 3f 02 c6 0c 3f aa cc fa 3e b5 95 0e 3e
       0.8100617 0.54989636 0.4898427 0.13924296
000180 c3 93 28 3f 4b 0e 2f 3f 96 6e 36 bf 0d a9 35 bf
       0.65850466 0.68381184 -0.7126249 -0.70961076
000190 5a 61 15 3f b5 76 ba be 4f d6 fb 3e a9 2d 19 3f
       0.5835167 -0.3641869 0.49186942 0.59835297
0001a0 47 d1 17 bf 3d 08 ea be 4a dd 12 3f 68 41 98 be
       -0.59303707 -0.4570941 0.5736891 -0.297374
0001b0 67 6b 2a 3f fc 15 98 be 89 52 cf be 49 60 37 3f
       0.6657013 -0.29704273 -0.40492657 0.71631294
0001c0 44 b6 05 bf d7 78 a4 be b7 d8 15 3f 55 cf 17 bf
       -0.5223124 -0.32123443 0.58533806 -0.5930074
0001d0 37 34 19 3f de 60 53 bf 5d 6f 0a 3f 5e 9b aa bc
       0.598453 -0.8256968 0.54076177 -0.020826038
0001e0 35 42 1c 3f 5a 49 0d bf 3e 05 ea 3e e9 1f ad be
       0.61038524 -0.5519005 0.45707124 -0.33813408
0001f0 96 5c 9a be 8c 65 01 3f 08 a4 a8 3e e0 59 05 bf
       -0.30148762 0.50545573 0.32937646 -0.52090263

fc3.weight f4 [1, 128]
000000 59 0b 21 3d 22 11 69 3d ec e4 eb 3c 77 eb 9c 3d
       0.039317463 0.056901105 0.028795682 0.07662099
000010 1b f6 15 3d 0d 0c 80 bd 08 5f c3 3c 49 eb 32 bd
       0.036611658 -0.062522985 0.023849025 -0.043681417
000020 4e c7 cd bd 66 dd 9e 3d 6f 70 1d 3d 73 cd 86 bd
       -0.1004778 0.07757072 0.038437303 -0.06582155
000030 d8 44 2e be 28 f5 5c bd 77 b1 01 3e 94 c8 0c 3d
       -0.1701845 -0.053944737 0.12665354 0.034370974
000040 e7 bb 0c 3d 5a 27 ac ba 81 ce 55 bd 7d 59 06 3c
       0.034358885 -0.0013134286 -0.05219889 0.008200047
000050 9c 52 39 bd 8e cc 1a bd e2 81 07 bd cd 9e 09 3d
       -0.045244798 -0.037792735 -0.03308285 0.03359871
000060 fb af aa bc 8c 9a 65 3c 99 3c 93 3d 7d 4f b8 bd
       -0.020835867 0.014013898 0.071892925 -0.08999536
000070 69 55 b3 3c cb f3 98 bd 0f b2 18 bd 41 9e 1f bd
       0.021891313 -0.07468375 -0.037279185 -0.038969282
000080 41 66 80 bd 19 3e bd 3d 11 15 18 3d 12 0f 30 3b
       -0.062695034 0.0924036 0.037129465 0.0026864451
000090 33 65 7f 3c 75 76 9e 3c 47 e3 9d bd 4b b3 00 3d
       0.015588093 0.019343594 -0.07709365 0.031420987
0000a0 b9 98 07 3d 72 9b f0 3c 94 56 25 3e 73 36 35 bd
       0.033104632 0.029370997 0.16146308 -0.04424138
0000b0 c7 51 98 bc 89 c9 a5 3c 82 46 6d bc b2 13 b2 3d
       -0.018593682 0.020237701 -0.014482142 0.08695163
0000c0 41 b4 8c 3c c9 27 df 3c 9d 83 f0 bc 09 4a b8 3c
       0.017175796 0.02724065 -0.029359633 0.02249624
0000d0 9c 73 6e 3c bf 7e 01 bd 19 94 06 be e4 f5 46 3d
       0.014553931 -0.031615015 -0.13142432 0.048574343
0000e0 1a 37 c3 3c f4 1e ef 3c 6b b3 8b bc 05 50 fe bc
       0.023829985 0.029189564 -0.017053327 -0.031044016
0000f0 78 23 85 bc 11 3b ab 3d be ca 53 3d 0e 5d b5 bd
       -0.016252264 0.083608754 0.051707022 -0.088556394
000100 a5 f9 cb 3c cc 58 05 3d 0c 99 8c bd 07 bc e5 bc
       0.024899313 0.032555386 -0.06865129 -0.02804376
000110 74 28 b1 3c 8f 71 a8 3c ad 57 10 bd e5 86 67 3d
       0.021625735 0.020561961 -0.035239864 0.05652513
000120 ce 98 e5 3c 69 76 4e 3d fd 79 d0 bd 80 e9 50 3d
       0.028026965 0.050405893 -0.101795174 0.051003933
000130 3a 86 0e 3d 2e ea ed bc ce 41 54 bd d1 98 61 bc
       0.034795977 -0.02904233 -0.05182057 -0.013769344
000140 d8 50 3e 3c 07 6a fd ba 8a 83 ac bd 30 2a ba 3c
       0.011615954 -0.0019333967 -0.084235266 0.022725195
000150 42 13 b5 3c 73 f0 cc bc ed 4b f7 bc a1 15 bc 3c
       0.02210391 -0.025016999 -0.030187571 0.022959532
000160 58 84 f7 bc 81 e3 8b bd fd 5f 06 bd bc 60 26 bd
       -0.030214474 -0.06830502 -0.032806385 -0.040619597
000170 a3 1e 3d 3d 85 e3 00 3d 65 47 87 3c f9 30 33 3d
       0.046171796 0.03146698 0.016513536 0.043747876
000180 0e 24 0c 3d c3 2e eb 3c ac 18 c8 bc ac e7 15 bd
       0.034214072 0.028708821 -0.024425827 -0.036597893
000190 52 8c 54 3d b0 da 44 bd ba e7 79 3c 31 6d 7b 3c
       0.051891632 -0.04806012 0.015253002 0.0153458575
0001a0 ea 5c 3a bd ee ed cb bc 6d 80 11 3d 9d 48 a2 bd
       -0.045498766 -0.024893727 0.035522867 -0.07924006
0001b0 22 92 31 3d d2 06 a9 bd 01 85 17 3c c8 22 93 3d
       0.043352254 -0.08253254 0.009248019 0.07184368
0001c0 b1 69 8a bc a0 47 f1 bc 19 9c 52 3d 7c 06 0f bd
       -0.0168961 -0.029453099 0.051418398 -0.034918293
0001d0 ba 8a 92 3c 30 99 7c bd 74 9e bf 3c 65 fe 60 bd
       0.017888416 -0.06166953 0.023390986 -0.05493011
0001e0 a5 0c c7 3d ca 25 9b bd 85 92 fa 3c 43 5e 19 bd
       0.09719209 -0.07575567 0.030587444 -0.03744341
0001f0 ab c4 bc 3c ca c1 fb 3c 43 8a 76 3c fd 02 4a bc
       0.023042997 0.030732054 0.015047613 -0.012329814
